<?xml version="1.0" ?>
<net name="pedestrian-and-vehicle-detector-adas-0001" version="10">
	<layers>
		<layer id="0" name="data" type="Parameter" version="opset1">
			<data element_type="f16" shape="1,3,384,672"/>
			<output>
				<port id="0" precision="FP16">
					<dim>1</dim>
					<dim>3</dim>
					<dim>384</dim>
					<dim>672</dim>
				</port>
			</output>
		</layer>
		<layer id="1" name="data_mul_10675_const502_const" type="Const" version="opset1">
			<data element_type="f16" offset="0" shape="1,1,1,1" size="2"/>
			<output>
				<port id="1" precision="FP16">
					<dim>1</dim>
					<dim>1</dim>
					<dim>1</dim>
					<dim>1</dim>
				</port>
			</output>
		</layer>
		<layer id="2" name="data/scale_value/Fused_Mul_" type="Multiply" version="opset1">
			<input>
				<port id="0">
					<dim>1</dim>
					<dim>3</dim>
					<dim>384</dim>
					<dim>672</dim>
				</port>
				<port id="1">
					<dim>1</dim>
					<dim>1</dim>
					<dim>1</dim>
					<dim>1</dim>
				</port>
			</input>
			<output>
				<port id="2" precision="FP16">
					<dim>1</dim>
					<dim>3</dim>
					<dim>384</dim>
					<dim>672</dim>
				</port>
			</output>
		</layer>
		<layer id="3" name="data_add_10677_const504_const" type="Const" version="opset1">
			<data element_type="f16" offset="2" shape="1,3,1,1" size="6"/>
			<output>
				<port id="1" precision="FP16">
					<dim>1</dim>
					<dim>3</dim>
					<dim>1</dim>
					<dim>1</dim>
				</port>
			</output>
		</layer>
		<layer id="4" name="data/mean_value/Fused_Add_" type="Add" version="opset1">
			<input>
				<port id="0">
					<dim>1</dim>
					<dim>3</dim>
					<dim>384</dim>
					<dim>672</dim>
				</port>
				<port id="1">
					<dim>1</dim>
					<dim>3</dim>
					<dim>1</dim>
					<dim>1</dim>
				</port>
			</input>
			<output>
				<port id="2" precision="FP16">
					<dim>1</dim>
					<dim>3</dim>
					<dim>384</dim>
					<dim>672</dim>
				</port>
			</output>
		</layer>
		<layer id="5" name="24372441_const" type="Const" version="opset1">
			<data element_type="f16" offset="8" shape="" size="2"/>
			<output>
				<port id="1" precision="FP16"/>
			</output>
		</layer>
		<layer id="6" name="24382442_const" type="Const" version="opset1">
			<data element_type="f16" offset="10" shape="" size="2"/>
			<output>
				<port id="1" precision="FP16"/>
			</output>
		</layer>
		<layer id="7" name="24392443_const" type="Const" version="opset1">
			<data element_type="f16" offset="8" shape="" size="2"/>
			<output>
				<port id="1" precision="FP16"/>
			</output>
		</layer>
		<layer id="8" name="24402444_const" type="Const" version="opset1">
			<data element_type="f16" offset="10" shape="" size="2"/>
			<output>
				<port id="1" precision="FP16"/>
			</output>
		</layer>
		<layer id="9" name="conv1/fq_input_0" type="FakeQuantize" version="opset1">
			<data levels="256"/>
			<input>
				<port id="0">
					<dim>1</dim>
					<dim>3</dim>
					<dim>384</dim>
					<dim>672</dim>
				</port>
				<port id="1"/>
				<port id="2"/>
				<port id="3"/>
				<port id="4"/>
			</input>
			<output>
				<port id="5" precision="FP16">
					<dim>1</dim>
					<dim>3</dim>
					<dim>384</dim>
					<dim>672</dim>
				</port>
			</output>
		</layer>
		<layer id="10" name="conv1/fq_weights_1/Convert_to_float/Cast_06705_const" type="Const" version="opset1">
			<data element_type="u8" offset="12" shape="32,3,3,3" size="864"/>
			<output>
				<port id="1" precision="U8">
					<dim>32</dim>
					<dim>3</dim>
					<dim>3</dim>
					<dim>3</dim>
				</port>
			</output>
		</layer>
		<layer id="11" name="conv1/fq_weights_1/Convert_to_float" type="Convert" version="opset1">
			<data destination_type="f16"/>
			<input>
				<port id="0">
					<dim>32</dim>
					<dim>3</dim>
					<dim>3</dim>
					<dim>3</dim>
				</port>
			</input>
			<output>
				<port id="1" precision="FP16">
					<dim>32</dim>
					<dim>3</dim>
					<dim>3</dim>
					<dim>3</dim>
				</port>
			</output>
		</layer>
		<layer id="12" name="conv1/fq_weights_1/Copy/out_low5887_const" type="Const" version="opset1">
			<data element_type="f16" offset="876" shape="1" size="2"/>
			<output>
				<port id="1" precision="FP16">
					<dim>1</dim>
				</port>
			</output>
		</layer>
		<layer id="13" name="conv1/fq_weights_1/Copy/out_high5888_const" type="Const" version="opset1">
			<data element_type="f16" offset="878" shape="1" size="2"/>
			<output>
				<port id="1" precision="FP16">
					<dim>1</dim>
				</port>
			</output>
		</layer>
		<layer id="14" name="24492453_const" type="Const" version="opset1">
			<data element_type="f16" offset="880" shape="32,1,1,1" size="64"/>
			<output>
				<port id="1" precision="FP16">
					<dim>32</dim>
					<dim>1</dim>
					<dim>1</dim>
					<dim>1</dim>
				</port>
			</output>
		</layer>
		<layer id="15" name="24502454_const" type="Const" version="opset1">
			<data element_type="f16" offset="944" shape="32,1,1,1" size="64"/>
			<output>
				<port id="1" precision="FP16">
					<dim>32</dim>
					<dim>1</dim>
					<dim>1</dim>
					<dim>1</dim>
				</port>
			</output>
		</layer>
		<layer id="16" name="conv1/fq_weights_1" type="FakeQuantize" version="opset1">
			<data levels="255"/>
			<input>
				<port id="0">
					<dim>32</dim>
					<dim>3</dim>
					<dim>3</dim>
					<dim>3</dim>
				</port>
				<port id="1">
					<dim>1</dim>
				</port>
				<port id="2">
					<dim>1</dim>
				</port>
				<port id="3">
					<dim>32</dim>
					<dim>1</dim>
					<dim>1</dim>
					<dim>1</dim>
				</port>
				<port id="4">
					<dim>32</dim>
					<dim>1</dim>
					<dim>1</dim>
					<dim>1</dim>
				</port>
			</input>
			<output>
				<port id="5" precision="FP16">
					<dim>32</dim>
					<dim>3</dim>
					<dim>3</dim>
					<dim>3</dim>
				</port>
			</output>
		</layer>
		<layer id="17" name="conv1" type="Convolution" version="opset1">
			<data dilations="1,1" output_padding="0,0" pads_begin="1,1" pads_end="1,1" strides="2,2"/>
			<input>
				<port id="0">
					<dim>1</dim>
					<dim>3</dim>
					<dim>384</dim>
					<dim>672</dim>
				</port>
				<port id="1">
					<dim>32</dim>
					<dim>3</dim>
					<dim>3</dim>
					<dim>3</dim>
				</port>
			</input>
			<output>
				<port id="2" precision="FP16">
					<dim>1</dim>
					<dim>32</dim>
					<dim>192</dim>
					<dim>336</dim>
				</port>
			</output>
		</layer>
		<layer id="18" name="data_add_106801068511115/EltwiseUnsqueeze11279_const508_const" type="Const" version="opset1">
			<data element_type="f16" offset="1008" shape="1,32,1,1" size="64"/>
			<output>
				<port id="1" precision="FP16">
					<dim>1</dim>
					<dim>32</dim>
					<dim>1</dim>
					<dim>1</dim>
				</port>
			</output>
		</layer>
		<layer id="19" name="conv1/bn/variance/Fused_Add_" type="Add" version="opset1">
			<input>
				<port id="0">
					<dim>1</dim>
					<dim>32</dim>
					<dim>192</dim>
					<dim>336</dim>
				</port>
				<port id="1">
					<dim>1</dim>
					<dim>32</dim>
					<dim>1</dim>
					<dim>1</dim>
				</port>
			</input>
			<output>
				<port id="2" precision="FP16">
					<dim>1</dim>
					<dim>32</dim>
					<dim>192</dim>
					<dim>336</dim>
				</port>
			</output>
		</layer>
		<layer id="20" name="relu1" type="ReLU" version="opset1">
			<input>
				<port id="0">
					<dim>1</dim>
					<dim>32</dim>
					<dim>192</dim>
					<dim>336</dim>
				</port>
			</input>
			<output>
				<port id="1" precision="FP16">
					<dim>1</dim>
					<dim>32</dim>
					<dim>192</dim>
					<dim>336</dim>
				</port>
			</output>
		</layer>
		<layer id="21" name="19371941_const" type="Const" version="opset1">
			<data element_type="f16" offset="1072" shape="1,32,1,1" size="64"/>
			<output>
				<port id="1" precision="FP16">
					<dim>1</dim>
					<dim>32</dim>
					<dim>1</dim>
					<dim>1</dim>
				</port>
			</output>
		</layer>
		<layer id="22" name="19381942_const" type="Const" version="opset1">
			<data element_type="f16" offset="1136" shape="1,32,1,1" size="64"/>
			<output>
				<port id="1" precision="FP16">
					<dim>1</dim>
					<dim>32</dim>
					<dim>1</dim>
					<dim>1</dim>
				</port>
			</output>
		</layer>
		<layer id="23" name="19391943_const" type="Const" version="opset1">
			<data element_type="f16" offset="1072" shape="1,32,1,1" size="64"/>
			<output>
				<port id="1" precision="FP16">
					<dim>1</dim>
					<dim>32</dim>
					<dim>1</dim>
					<dim>1</dim>
				</port>
			</output>
		</layer>
		<layer id="24" name="19401944_const" type="Const" version="opset1">
			<data element_type="f16" offset="1136" shape="1,32,1,1" size="64"/>
			<output>
				<port id="1" precision="FP16">
					<dim>1</dim>
					<dim>32</dim>
					<dim>1</dim>
					<dim>1</dim>
				</port>
			</output>
		</layer>
		<layer id="25" name="conv2_1/dw/fq_input_0" type="FakeQuantize" version="opset1">
			<data levels="256"/>
			<input>
				<port id="0">
					<dim>1</dim>
					<dim>32</dim>
					<dim>192</dim>
					<dim>336</dim>
				</port>
				<port id="1">
					<dim>1</dim>
					<dim>32</dim>
					<dim>1</dim>
					<dim>1</dim>
				</port>
				<port id="2">
					<dim>1</dim>
					<dim>32</dim>
					<dim>1</dim>
					<dim>1</dim>
				</port>
				<port id="3">
					<dim>1</dim>
					<dim>32</dim>
					<dim>1</dim>
					<dim>1</dim>
				</port>
				<port id="4">
					<dim>1</dim>
					<dim>32</dim>
					<dim>1</dim>
					<dim>1</dim>
				</port>
			</input>
			<output>
				<port id="5" precision="FP16">
					<dim>1</dim>
					<dim>32</dim>
					<dim>192</dim>
					<dim>336</dim>
				</port>
			</output>
		</layer>
		<layer id="26" name="conv2_1/dw/fq_weights_1/Convert_to_float/Cast_06817_const" type="Const" version="opset1">
			<data element_type="u8" offset="1200" shape="32,1,3,3" size="288"/>
			<output>
				<port id="1" precision="U8">
					<dim>32</dim>
					<dim>1</dim>
					<dim>3</dim>
					<dim>3</dim>
				</port>
			</output>
		</layer>
		<layer id="27" name="conv2_1/dw/fq_weights_1/Convert_to_float" type="Convert" version="opset1">
			<data destination_type="f16"/>
			<input>
				<port id="0">
					<dim>32</dim>
					<dim>1</dim>
					<dim>3</dim>
					<dim>3</dim>
				</port>
			</input>
			<output>
				<port id="1" precision="FP16">
					<dim>32</dim>
					<dim>1</dim>
					<dim>3</dim>
					<dim>3</dim>
				</port>
			</output>
		</layer>
		<layer id="28" name="conv2_1/dw/fq_weights_1/Copy/out_low5879_const" type="Const" version="opset1">
			<data element_type="f16" offset="876" shape="1" size="2"/>
			<output>
				<port id="1" precision="FP16">
					<dim>1</dim>
				</port>
			</output>
		</layer>
		<layer id="29" name="conv2_1/dw/fq_weights_1/Copy/out_high5880_const" type="Const" version="opset1">
			<data element_type="f16" offset="878" shape="1" size="2"/>
			<output>
				<port id="1" precision="FP16">
					<dim>1</dim>
				</port>
			</output>
		</layer>
		<layer id="30" name="19491953_const" type="Const" version="opset1">
			<data element_type="f16" offset="1488" shape="32,1,1,1" size="64"/>
			<output>
				<port id="1" precision="FP16">
					<dim>32</dim>
					<dim>1</dim>
					<dim>1</dim>
					<dim>1</dim>
				</port>
			</output>
		</layer>
		<layer id="31" name="19501954_const" type="Const" version="opset1">
			<data element_type="f16" offset="1552" shape="32,1,1,1" size="64"/>
			<output>
				<port id="1" precision="FP16">
					<dim>32</dim>
					<dim>1</dim>
					<dim>1</dim>
					<dim>1</dim>
				</port>
			</output>
		</layer>
		<layer id="32" name="conv2_1/dw/fq_weights_1" type="FakeQuantize" version="opset1">
			<data levels="255"/>
			<input>
				<port id="0">
					<dim>32</dim>
					<dim>1</dim>
					<dim>3</dim>
					<dim>3</dim>
				</port>
				<port id="1">
					<dim>1</dim>
				</port>
				<port id="2">
					<dim>1</dim>
				</port>
				<port id="3">
					<dim>32</dim>
					<dim>1</dim>
					<dim>1</dim>
					<dim>1</dim>
				</port>
				<port id="4">
					<dim>32</dim>
					<dim>1</dim>
					<dim>1</dim>
					<dim>1</dim>
				</port>
			</input>
			<output>
				<port id="5" precision="FP16">
					<dim>32</dim>
					<dim>1</dim>
					<dim>3</dim>
					<dim>3</dim>
				</port>
			</output>
		</layer>
		<layer id="33" name="7606/value7608_const" type="Const" version="opset1">
			<data element_type="i64" offset="1616" shape="5" size="40"/>
			<output>
				<port id="1" precision="I64">
					<dim>5</dim>
				</port>
			</output>
		</layer>
		<layer id="34" name="7606" type="Reshape" version="opset1">
			<data special_zero="True"/>
			<input>
				<port id="0">
					<dim>32</dim>
					<dim>1</dim>
					<dim>3</dim>
					<dim>3</dim>
				</port>
				<port id="1">
					<dim>5</dim>
				</port>
			</input>
			<output>
				<port id="2" precision="FP16">
					<dim>32</dim>
					<dim>1</dim>
					<dim>1</dim>
					<dim>3</dim>
					<dim>3</dim>
				</port>
			</output>
		</layer>
		<layer id="35" name="conv2_1/dw" type="GroupConvolution" version="opset1">
			<data dilations="1,1" output_padding="0,0" pads_begin="1,1" pads_end="1,1" strides="1,1"/>
			<input>
				<port id="0">
					<dim>1</dim>
					<dim>32</dim>
					<dim>192</dim>
					<dim>336</dim>
				</port>
				<port id="1">
					<dim>32</dim>
					<dim>1</dim>
					<dim>1</dim>
					<dim>3</dim>
					<dim>3</dim>
				</port>
			</input>
			<output>
				<port id="2" precision="FP16">
					<dim>1</dim>
					<dim>32</dim>
					<dim>192</dim>
					<dim>336</dim>
				</port>
			</output>
		</layer>
		<layer id="36" name="data_add_106881069311117/EltwiseUnsqueeze11287_const513_const" type="Const" version="opset1">
			<data element_type="f16" offset="1656" shape="1,32,1,1" size="64"/>
			<output>
				<port id="1" precision="FP16">
					<dim>1</dim>
					<dim>32</dim>
					<dim>1</dim>
					<dim>1</dim>
				</port>
			</output>
		</layer>
		<layer id="37" name="conv2_1/dw/bn/variance/Fused_Add_" type="Add" version="opset1">
			<input>
				<port id="0">
					<dim>1</dim>
					<dim>32</dim>
					<dim>192</dim>
					<dim>336</dim>
				</port>
				<port id="1">
					<dim>1</dim>
					<dim>32</dim>
					<dim>1</dim>
					<dim>1</dim>
				</port>
			</input>
			<output>
				<port id="2" precision="FP16">
					<dim>1</dim>
					<dim>32</dim>
					<dim>192</dim>
					<dim>336</dim>
				</port>
			</output>
		</layer>
		<layer id="38" name="relu2_1/dw" type="ReLU" version="opset1">
			<input>
				<port id="0">
					<dim>1</dim>
					<dim>32</dim>
					<dim>192</dim>
					<dim>336</dim>
				</port>
			</input>
			<output>
				<port id="1" precision="FP16">
					<dim>1</dim>
					<dim>32</dim>
					<dim>192</dim>
					<dim>336</dim>
				</port>
			</output>
		</layer>
		<layer id="39" name="21372141_const" type="Const" version="opset1">
			<data element_type="f16" offset="876" shape="" size="2"/>
			<output>
				<port id="1" precision="FP16"/>
			</output>
		</layer>
		<layer id="40" name="21382142_const" type="Const" version="opset1">
			<data element_type="f16" offset="1720" shape="" size="2"/>
			<output>
				<port id="1" precision="FP16"/>
			</output>
		</layer>
		<layer id="41" name="21392143_const" type="Const" version="opset1">
			<data element_type="f16" offset="876" shape="" size="2"/>
			<output>
				<port id="1" precision="FP16"/>
			</output>
		</layer>
		<layer id="42" name="21402144_const" type="Const" version="opset1">
			<data element_type="f16" offset="1720" shape="" size="2"/>
			<output>
				<port id="1" precision="FP16"/>
			</output>
		</layer>
		<layer id="43" name="conv2_1/sep/fq_input_0" type="FakeQuantize" version="opset1">
			<data levels="256"/>
			<input>
				<port id="0">
					<dim>1</dim>
					<dim>32</dim>
					<dim>192</dim>
					<dim>336</dim>
				</port>
				<port id="1"/>
				<port id="2"/>
				<port id="3"/>
				<port id="4"/>
			</input>
			<output>
				<port id="5" precision="FP16">
					<dim>1</dim>
					<dim>32</dim>
					<dim>192</dim>
					<dim>336</dim>
				</port>
			</output>
		</layer>
		<layer id="44" name="conv2_1/sep/fq_weights_1/Convert_to_float/Cast_06683_const" type="Const" version="opset1">
			<data element_type="u8" offset="1722" shape="64,32,1,1" size="2048"/>
			<output>
				<port id="1" precision="U8">
					<dim>64</dim>
					<dim>32</dim>
					<dim>1</dim>
					<dim>1</dim>
				</port>
			</output>
		</layer>
		<layer id="45" name="conv2_1/sep/fq_weights_1/Convert_to_float" type="Convert" version="opset1">
			<data destination_type="f16"/>
			<input>
				<port id="0">
					<dim>64</dim>
					<dim>32</dim>
					<dim>1</dim>
					<dim>1</dim>
				</port>
			</input>
			<output>
				<port id="1" precision="FP16">
					<dim>64</dim>
					<dim>32</dim>
					<dim>1</dim>
					<dim>1</dim>
				</port>
			</output>
		</layer>
		<layer id="46" name="conv2_1/sep/fq_weights_1/Copy/out_low5919_const" type="Const" version="opset1">
			<data element_type="f16" offset="876" shape="1" size="2"/>
			<output>
				<port id="1" precision="FP16">
					<dim>1</dim>
				</port>
			</output>
		</layer>
		<layer id="47" name="conv2_1/sep/fq_weights_1/Copy/out_high5920_const" type="Const" version="opset1">
			<data element_type="f16" offset="878" shape="1" size="2"/>
			<output>
				<port id="1" precision="FP16">
					<dim>1</dim>
				</port>
			</output>
		</layer>
		<layer id="48" name="21492153_const" type="Const" version="opset1">
			<data element_type="f16" offset="3770" shape="64,1,1,1" size="128"/>
			<output>
				<port id="1" precision="FP16">
					<dim>64</dim>
					<dim>1</dim>
					<dim>1</dim>
					<dim>1</dim>
				</port>
			</output>
		</layer>
		<layer id="49" name="21502154_const" type="Const" version="opset1">
			<data element_type="f16" offset="3898" shape="64,1,1,1" size="128"/>
			<output>
				<port id="1" precision="FP16">
					<dim>64</dim>
					<dim>1</dim>
					<dim>1</dim>
					<dim>1</dim>
				</port>
			</output>
		</layer>
		<layer id="50" name="conv2_1/sep/fq_weights_1" type="FakeQuantize" version="opset1">
			<data levels="255"/>
			<input>
				<port id="0">
					<dim>64</dim>
					<dim>32</dim>
					<dim>1</dim>
					<dim>1</dim>
				</port>
				<port id="1">
					<dim>1</dim>
				</port>
				<port id="2">
					<dim>1</dim>
				</port>
				<port id="3">
					<dim>64</dim>
					<dim>1</dim>
					<dim>1</dim>
					<dim>1</dim>
				</port>
				<port id="4">
					<dim>64</dim>
					<dim>1</dim>
					<dim>1</dim>
					<dim>1</dim>
				</port>
			</input>
			<output>
				<port id="5" precision="FP16">
					<dim>64</dim>
					<dim>32</dim>
					<dim>1</dim>
					<dim>1</dim>
				</port>
			</output>
		</layer>
		<layer id="51" name="conv2_1/sep" type="Convolution" version="opset1">
			<data dilations="1,1" output_padding="0,0" pads_begin="0,0" pads_end="0,0" strides="1,1"/>
			<input>
				<port id="0">
					<dim>1</dim>
					<dim>32</dim>
					<dim>192</dim>
					<dim>336</dim>
				</port>
				<port id="1">
					<dim>64</dim>
					<dim>32</dim>
					<dim>1</dim>
					<dim>1</dim>
				</port>
			</input>
			<output>
				<port id="2" precision="FP16">
					<dim>1</dim>
					<dim>64</dim>
					<dim>192</dim>
					<dim>336</dim>
				</port>
			</output>
		</layer>
		<layer id="52" name="data_add_106961070111119/EltwiseUnsqueeze11295_const518_const" type="Const" version="opset1">
			<data element_type="f16" offset="4026" shape="1,64,1,1" size="128"/>
			<output>
				<port id="1" precision="FP16">
					<dim>1</dim>
					<dim>64</dim>
					<dim>1</dim>
					<dim>1</dim>
				</port>
			</output>
		</layer>
		<layer id="53" name="conv2_1/sep/bn/variance/Fused_Add_" type="Add" version="opset1">
			<input>
				<port id="0">
					<dim>1</dim>
					<dim>64</dim>
					<dim>192</dim>
					<dim>336</dim>
				</port>
				<port id="1">
					<dim>1</dim>
					<dim>64</dim>
					<dim>1</dim>
					<dim>1</dim>
				</port>
			</input>
			<output>
				<port id="2" precision="FP16">
					<dim>1</dim>
					<dim>64</dim>
					<dim>192</dim>
					<dim>336</dim>
				</port>
			</output>
		</layer>
		<layer id="54" name="relu2_1/sep" type="ReLU" version="opset1">
			<input>
				<port id="0">
					<dim>1</dim>
					<dim>64</dim>
					<dim>192</dim>
					<dim>336</dim>
				</port>
			</input>
			<output>
				<port id="1" precision="FP16">
					<dim>1</dim>
					<dim>64</dim>
					<dim>192</dim>
					<dim>336</dim>
				</port>
			</output>
		</layer>
		<layer id="55" name="27172721_const" type="Const" version="opset1">
			<data element_type="f16" offset="4154" shape="1,64,1,1" size="128"/>
			<output>
				<port id="1" precision="FP16">
					<dim>1</dim>
					<dim>64</dim>
					<dim>1</dim>
					<dim>1</dim>
				</port>
			</output>
		</layer>
		<layer id="56" name="27182722_const" type="Const" version="opset1">
			<data element_type="f16" offset="4282" shape="1,64,1,1" size="128"/>
			<output>
				<port id="1" precision="FP16">
					<dim>1</dim>
					<dim>64</dim>
					<dim>1</dim>
					<dim>1</dim>
				</port>
			</output>
		</layer>
		<layer id="57" name="27192723_const" type="Const" version="opset1">
			<data element_type="f16" offset="4154" shape="1,64,1,1" size="128"/>
			<output>
				<port id="1" precision="FP16">
					<dim>1</dim>
					<dim>64</dim>
					<dim>1</dim>
					<dim>1</dim>
				</port>
			</output>
		</layer>
		<layer id="58" name="27202724_const" type="Const" version="opset1">
			<data element_type="f16" offset="4282" shape="1,64,1,1" size="128"/>
			<output>
				<port id="1" precision="FP16">
					<dim>1</dim>
					<dim>64</dim>
					<dim>1</dim>
					<dim>1</dim>
				</port>
			</output>
		</layer>
		<layer id="59" name="conv2_2/dw/fq_input_0" type="FakeQuantize" version="opset1">
			<data levels="256"/>
			<input>
				<port id="0">
					<dim>1</dim>
					<dim>64</dim>
					<dim>192</dim>
					<dim>336</dim>
				</port>
				<port id="1">
					<dim>1</dim>
					<dim>64</dim>
					<dim>1</dim>
					<dim>1</dim>
				</port>
				<port id="2">
					<dim>1</dim>
					<dim>64</dim>
					<dim>1</dim>
					<dim>1</dim>
				</port>
				<port id="3">
					<dim>1</dim>
					<dim>64</dim>
					<dim>1</dim>
					<dim>1</dim>
				</port>
				<port id="4">
					<dim>1</dim>
					<dim>64</dim>
					<dim>1</dim>
					<dim>1</dim>
				</port>
			</input>
			<output>
				<port id="5" precision="FP16">
					<dim>1</dim>
					<dim>64</dim>
					<dim>192</dim>
					<dim>336</dim>
				</port>
			</output>
		</layer>
		<layer id="60" name="conv2_2/dw/fq_weights_1/Convert_to_float/Cast_06697_const" type="Const" version="opset1">
			<data element_type="u8" offset="4410" shape="64,1,3,3" size="576"/>
			<output>
				<port id="1" precision="U8">
					<dim>64</dim>
					<dim>1</dim>
					<dim>3</dim>
					<dim>3</dim>
				</port>
			</output>
		</layer>
		<layer id="61" name="conv2_2/dw/fq_weights_1/Convert_to_float" type="Convert" version="opset1">
			<data destination_type="f16"/>
			<input>
				<port id="0">
					<dim>64</dim>
					<dim>1</dim>
					<dim>3</dim>
					<dim>3</dim>
				</port>
			</input>
			<output>
				<port id="1" precision="FP16">
					<dim>64</dim>
					<dim>1</dim>
					<dim>3</dim>
					<dim>3</dim>
				</port>
			</output>
		</layer>
		<layer id="62" name="conv2_2/dw/fq_weights_1/Copy/out_low5903_const" type="Const" version="opset1">
			<data element_type="f16" offset="876" shape="1" size="2"/>
			<output>
				<port id="1" precision="FP16">
					<dim>1</dim>
				</port>
			</output>
		</layer>
		<layer id="63" name="conv2_2/dw/fq_weights_1/Copy/out_high5904_const" type="Const" version="opset1">
			<data element_type="f16" offset="878" shape="1" size="2"/>
			<output>
				<port id="1" precision="FP16">
					<dim>1</dim>
				</port>
			</output>
		</layer>
		<layer id="64" name="27292733_const" type="Const" version="opset1">
			<data element_type="f16" offset="4986" shape="64,1,1,1" size="128"/>
			<output>
				<port id="1" precision="FP16">
					<dim>64</dim>
					<dim>1</dim>
					<dim>1</dim>
					<dim>1</dim>
				</port>
			</output>
		</layer>
		<layer id="65" name="27302734_const" type="Const" version="opset1">
			<data element_type="f16" offset="5114" shape="64,1,1,1" size="128"/>
			<output>
				<port id="1" precision="FP16">
					<dim>64</dim>
					<dim>1</dim>
					<dim>1</dim>
					<dim>1</dim>
				</port>
			</output>
		</layer>
		<layer id="66" name="conv2_2/dw/fq_weights_1" type="FakeQuantize" version="opset1">
			<data levels="255"/>
			<input>
				<port id="0">
					<dim>64</dim>
					<dim>1</dim>
					<dim>3</dim>
					<dim>3</dim>
				</port>
				<port id="1">
					<dim>1</dim>
				</port>
				<port id="2">
					<dim>1</dim>
				</port>
				<port id="3">
					<dim>64</dim>
					<dim>1</dim>
					<dim>1</dim>
					<dim>1</dim>
				</port>
				<port id="4">
					<dim>64</dim>
					<dim>1</dim>
					<dim>1</dim>
					<dim>1</dim>
				</port>
			</input>
			<output>
				<port id="5" precision="FP16">
					<dim>64</dim>
					<dim>1</dim>
					<dim>3</dim>
					<dim>3</dim>
				</port>
			</output>
		</layer>
		<layer id="67" name="7598/value7600_const" type="Const" version="opset1">
			<data element_type="i64" offset="5242" shape="5" size="40"/>
			<output>
				<port id="1" precision="I64">
					<dim>5</dim>
				</port>
			</output>
		</layer>
		<layer id="68" name="7598" type="Reshape" version="opset1">
			<data special_zero="True"/>
			<input>
				<port id="0">
					<dim>64</dim>
					<dim>1</dim>
					<dim>3</dim>
					<dim>3</dim>
				</port>
				<port id="1">
					<dim>5</dim>
				</port>
			</input>
			<output>
				<port id="2" precision="FP16">
					<dim>64</dim>
					<dim>1</dim>
					<dim>1</dim>
					<dim>3</dim>
					<dim>3</dim>
				</port>
			</output>
		</layer>
		<layer id="69" name="conv2_2/dw" type="GroupConvolution" version="opset1">
			<data dilations="1,1" output_padding="0,0" pads_begin="1,1" pads_end="1,1" strides="2,2"/>
			<input>
				<port id="0">
					<dim>1</dim>
					<dim>64</dim>
					<dim>192</dim>
					<dim>336</dim>
				</port>
				<port id="1">
					<dim>64</dim>
					<dim>1</dim>
					<dim>1</dim>
					<dim>3</dim>
					<dim>3</dim>
				</port>
			</input>
			<output>
				<port id="2" precision="FP16">
					<dim>1</dim>
					<dim>64</dim>
					<dim>96</dim>
					<dim>168</dim>
				</port>
			</output>
		</layer>
		<layer id="70" name="data_add_107041070911121/EltwiseUnsqueeze11303_const523_const" type="Const" version="opset1">
			<data element_type="f16" offset="5282" shape="1,64,1,1" size="128"/>
			<output>
				<port id="1" precision="FP16">
					<dim>1</dim>
					<dim>64</dim>
					<dim>1</dim>
					<dim>1</dim>
				</port>
			</output>
		</layer>
		<layer id="71" name="conv2_2/dw/bn/variance/Fused_Add_" type="Add" version="opset1">
			<input>
				<port id="0">
					<dim>1</dim>
					<dim>64</dim>
					<dim>96</dim>
					<dim>168</dim>
				</port>
				<port id="1">
					<dim>1</dim>
					<dim>64</dim>
					<dim>1</dim>
					<dim>1</dim>
				</port>
			</input>
			<output>
				<port id="2" precision="FP16">
					<dim>1</dim>
					<dim>64</dim>
					<dim>96</dim>
					<dim>168</dim>
				</port>
			</output>
		</layer>
		<layer id="72" name="relu2_2/dw" type="ReLU" version="opset1">
			<input>
				<port id="0">
					<dim>1</dim>
					<dim>64</dim>
					<dim>96</dim>
					<dim>168</dim>
				</port>
			</input>
			<output>
				<port id="1" precision="FP16">
					<dim>1</dim>
					<dim>64</dim>
					<dim>96</dim>
					<dim>168</dim>
				</port>
			</output>
		</layer>
		<layer id="73" name="18371841_const" type="Const" version="opset1">
			<data element_type="f16" offset="876" shape="" size="2"/>
			<output>
				<port id="1" precision="FP16"/>
			</output>
		</layer>
		<layer id="74" name="18381842_const" type="Const" version="opset1">
			<data element_type="f16" offset="5410" shape="" size="2"/>
			<output>
				<port id="1" precision="FP16"/>
			</output>
		</layer>
		<layer id="75" name="18391843_const" type="Const" version="opset1">
			<data element_type="f16" offset="876" shape="" size="2"/>
			<output>
				<port id="1" precision="FP16"/>
			</output>
		</layer>
		<layer id="76" name="18401844_const" type="Const" version="opset1">
			<data element_type="f16" offset="5410" shape="" size="2"/>
			<output>
				<port id="1" precision="FP16"/>
			</output>
		</layer>
		<layer id="77" name="conv2_2/sep/fq_input_0" type="FakeQuantize" version="opset1">
			<data levels="256"/>
			<input>
				<port id="0">
					<dim>1</dim>
					<dim>64</dim>
					<dim>96</dim>
					<dim>168</dim>
				</port>
				<port id="1"/>
				<port id="2"/>
				<port id="3"/>
				<port id="4"/>
			</input>
			<output>
				<port id="5" precision="FP16">
					<dim>1</dim>
					<dim>64</dim>
					<dim>96</dim>
					<dim>168</dim>
				</port>
			</output>
		</layer>
		<layer id="78" name="conv2_2/sep/fq_weights_1/Convert_to_float/Cast_06859_const" type="Const" version="opset1">
			<data element_type="u8" offset="5412" shape="120,64,1,1" size="7680"/>
			<output>
				<port id="1" precision="U8">
					<dim>120</dim>
					<dim>64</dim>
					<dim>1</dim>
					<dim>1</dim>
				</port>
			</output>
		</layer>
		<layer id="79" name="conv2_2/sep/fq_weights_1/Convert_to_float" type="Convert" version="opset1">
			<data destination_type="f16"/>
			<input>
				<port id="0">
					<dim>120</dim>
					<dim>64</dim>
					<dim>1</dim>
					<dim>1</dim>
				</port>
			</input>
			<output>
				<port id="1" precision="FP16">
					<dim>120</dim>
					<dim>64</dim>
					<dim>1</dim>
					<dim>1</dim>
				</port>
			</output>
		</layer>
		<layer id="80" name="conv2_2/sep/fq_weights_1/Copy/out_low5743_const" type="Const" version="opset1">
			<data element_type="f16" offset="876" shape="1" size="2"/>
			<output>
				<port id="1" precision="FP16">
					<dim>1</dim>
				</port>
			</output>
		</layer>
		<layer id="81" name="conv2_2/sep/fq_weights_1/Copy/out_high5744_const" type="Const" version="opset1">
			<data element_type="f16" offset="878" shape="1" size="2"/>
			<output>
				<port id="1" precision="FP16">
					<dim>1</dim>
				</port>
			</output>
		</layer>
		<layer id="82" name="18491853_const" type="Const" version="opset1">
			<data element_type="f16" offset="13092" shape="120,1,1,1" size="240"/>
			<output>
				<port id="1" precision="FP16">
					<dim>120</dim>
					<dim>1</dim>
					<dim>1</dim>
					<dim>1</dim>
				</port>
			</output>
		</layer>
		<layer id="83" name="18501854_const" type="Const" version="opset1">
			<data element_type="f16" offset="13332" shape="120,1,1,1" size="240"/>
			<output>
				<port id="1" precision="FP16">
					<dim>120</dim>
					<dim>1</dim>
					<dim>1</dim>
					<dim>1</dim>
				</port>
			</output>
		</layer>
		<layer id="84" name="conv2_2/sep/fq_weights_1" type="FakeQuantize" version="opset1">
			<data levels="255"/>
			<input>
				<port id="0">
					<dim>120</dim>
					<dim>64</dim>
					<dim>1</dim>
					<dim>1</dim>
				</port>
				<port id="1">
					<dim>1</dim>
				</port>
				<port id="2">
					<dim>1</dim>
				</port>
				<port id="3">
					<dim>120</dim>
					<dim>1</dim>
					<dim>1</dim>
					<dim>1</dim>
				</port>
				<port id="4">
					<dim>120</dim>
					<dim>1</dim>
					<dim>1</dim>
					<dim>1</dim>
				</port>
			</input>
			<output>
				<port id="5" precision="FP16">
					<dim>120</dim>
					<dim>64</dim>
					<dim>1</dim>
					<dim>1</dim>
				</port>
			</output>
		</layer>
		<layer id="85" name="conv2_2/sep" type="Convolution" version="opset1">
			<data dilations="1,1" output_padding="0,0" pads_begin="0,0" pads_end="0,0" strides="1,1"/>
			<input>
				<port id="0">
					<dim>1</dim>
					<dim>64</dim>
					<dim>96</dim>
					<dim>168</dim>
				</port>
				<port id="1">
					<dim>120</dim>
					<dim>64</dim>
					<dim>1</dim>
					<dim>1</dim>
				</port>
			</input>
			<output>
				<port id="2" precision="FP16">
					<dim>1</dim>
					<dim>120</dim>
					<dim>96</dim>
					<dim>168</dim>
				</port>
			</output>
		</layer>
		<layer id="86" name="data_add_107121071711123/EltwiseUnsqueeze11311_const528_const" type="Const" version="opset1">
			<data element_type="f16" offset="13572" shape="1,120,1,1" size="240"/>
			<output>
				<port id="1" precision="FP16">
					<dim>1</dim>
					<dim>120</dim>
					<dim>1</dim>
					<dim>1</dim>
				</port>
			</output>
		</layer>
		<layer id="87" name="conv2_2/sep/bn/variance/Fused_Add_" type="Add" version="opset1">
			<input>
				<port id="0">
					<dim>1</dim>
					<dim>120</dim>
					<dim>96</dim>
					<dim>168</dim>
				</port>
				<port id="1">
					<dim>1</dim>
					<dim>120</dim>
					<dim>1</dim>
					<dim>1</dim>
				</port>
			</input>
			<output>
				<port id="2" precision="FP16">
					<dim>1</dim>
					<dim>120</dim>
					<dim>96</dim>
					<dim>168</dim>
				</port>
			</output>
		</layer>
		<layer id="88" name="relu2_2/sep" type="ReLU" version="opset1">
			<input>
				<port id="0">
					<dim>1</dim>
					<dim>120</dim>
					<dim>96</dim>
					<dim>168</dim>
				</port>
			</input>
			<output>
				<port id="1" precision="FP16">
					<dim>1</dim>
					<dim>120</dim>
					<dim>96</dim>
					<dim>168</dim>
				</port>
			</output>
		</layer>
		<layer id="89" name="24772481_const" type="Const" version="opset1">
			<data element_type="f16" offset="13812" shape="1,120,1,1" size="240"/>
			<output>
				<port id="1" precision="FP16">
					<dim>1</dim>
					<dim>120</dim>
					<dim>1</dim>
					<dim>1</dim>
				</port>
			</output>
		</layer>
		<layer id="90" name="24782482_const" type="Const" version="opset1">
			<data element_type="f16" offset="14052" shape="1,120,1,1" size="240"/>
			<output>
				<port id="1" precision="FP16">
					<dim>1</dim>
					<dim>120</dim>
					<dim>1</dim>
					<dim>1</dim>
				</port>
			</output>
		</layer>
		<layer id="91" name="24792483_const" type="Const" version="opset1">
			<data element_type="f16" offset="13812" shape="1,120,1,1" size="240"/>
			<output>
				<port id="1" precision="FP16">
					<dim>1</dim>
					<dim>120</dim>
					<dim>1</dim>
					<dim>1</dim>
				</port>
			</output>
		</layer>
		<layer id="92" name="24802484_const" type="Const" version="opset1">
			<data element_type="f16" offset="14052" shape="1,120,1,1" size="240"/>
			<output>
				<port id="1" precision="FP16">
					<dim>1</dim>
					<dim>120</dim>
					<dim>1</dim>
					<dim>1</dim>
				</port>
			</output>
		</layer>
		<layer id="93" name="conv3_1/dw/fq_input_0" type="FakeQuantize" version="opset1">
			<data levels="256"/>
			<input>
				<port id="0">
					<dim>1</dim>
					<dim>120</dim>
					<dim>96</dim>
					<dim>168</dim>
				</port>
				<port id="1">
					<dim>1</dim>
					<dim>120</dim>
					<dim>1</dim>
					<dim>1</dim>
				</port>
				<port id="2">
					<dim>1</dim>
					<dim>120</dim>
					<dim>1</dim>
					<dim>1</dim>
				</port>
				<port id="3">
					<dim>1</dim>
					<dim>120</dim>
					<dim>1</dim>
					<dim>1</dim>
				</port>
				<port id="4">
					<dim>1</dim>
					<dim>120</dim>
					<dim>1</dim>
					<dim>1</dim>
				</port>
			</input>
			<output>
				<port id="5" precision="FP16">
					<dim>1</dim>
					<dim>120</dim>
					<dim>96</dim>
					<dim>168</dim>
				</port>
			</output>
		</layer>
		<layer id="94" name="conv3_1/dw/fq_weights_1/Convert_to_float/Cast_06641_const" type="Const" version="opset1">
			<data element_type="u8" offset="14292" shape="120,1,3,3" size="1080"/>
			<output>
				<port id="1" precision="U8">
					<dim>120</dim>
					<dim>1</dim>
					<dim>3</dim>
					<dim>3</dim>
				</port>
			</output>
		</layer>
		<layer id="95" name="conv3_1/dw/fq_weights_1/Convert_to_float" type="Convert" version="opset1">
			<data destination_type="f16"/>
			<input>
				<port id="0">
					<dim>120</dim>
					<dim>1</dim>
					<dim>3</dim>
					<dim>3</dim>
				</port>
			</input>
			<output>
				<port id="1" precision="FP16">
					<dim>120</dim>
					<dim>1</dim>
					<dim>3</dim>
					<dim>3</dim>
				</port>
			</output>
		</layer>
		<layer id="96" name="conv3_1/dw/fq_weights_1/Copy/out_low5631_const" type="Const" version="opset1">
			<data element_type="f16" offset="876" shape="1" size="2"/>
			<output>
				<port id="1" precision="FP16">
					<dim>1</dim>
				</port>
			</output>
		</layer>
		<layer id="97" name="conv3_1/dw/fq_weights_1/Copy/out_high5632_const" type="Const" version="opset1">
			<data element_type="f16" offset="878" shape="1" size="2"/>
			<output>
				<port id="1" precision="FP16">
					<dim>1</dim>
				</port>
			</output>
		</layer>
		<layer id="98" name="24892493_const" type="Const" version="opset1">
			<data element_type="f16" offset="15372" shape="120,1,1,1" size="240"/>
			<output>
				<port id="1" precision="FP16">
					<dim>120</dim>
					<dim>1</dim>
					<dim>1</dim>
					<dim>1</dim>
				</port>
			</output>
		</layer>
		<layer id="99" name="24902494_const" type="Const" version="opset1">
			<data element_type="f16" offset="15612" shape="120,1,1,1" size="240"/>
			<output>
				<port id="1" precision="FP16">
					<dim>120</dim>
					<dim>1</dim>
					<dim>1</dim>
					<dim>1</dim>
				</port>
			</output>
		</layer>
		<layer id="100" name="conv3_1/dw/fq_weights_1" type="FakeQuantize" version="opset1">
			<data levels="255"/>
			<input>
				<port id="0">
					<dim>120</dim>
					<dim>1</dim>
					<dim>3</dim>
					<dim>3</dim>
				</port>
				<port id="1">
					<dim>1</dim>
				</port>
				<port id="2">
					<dim>1</dim>
				</port>
				<port id="3">
					<dim>120</dim>
					<dim>1</dim>
					<dim>1</dim>
					<dim>1</dim>
				</port>
				<port id="4">
					<dim>120</dim>
					<dim>1</dim>
					<dim>1</dim>
					<dim>1</dim>
				</port>
			</input>
			<output>
				<port id="5" precision="FP16">
					<dim>120</dim>
					<dim>1</dim>
					<dim>3</dim>
					<dim>3</dim>
				</port>
			</output>
		</layer>
		<layer id="101" name="7594/value7596_const" type="Const" version="opset1">
			<data element_type="i64" offset="15852" shape="5" size="40"/>
			<output>
				<port id="1" precision="I64">
					<dim>5</dim>
				</port>
			</output>
		</layer>
		<layer id="102" name="7594" type="Reshape" version="opset1">
			<data special_zero="True"/>
			<input>
				<port id="0">
					<dim>120</dim>
					<dim>1</dim>
					<dim>3</dim>
					<dim>3</dim>
				</port>
				<port id="1">
					<dim>5</dim>
				</port>
			</input>
			<output>
				<port id="2" precision="FP16">
					<dim>120</dim>
					<dim>1</dim>
					<dim>1</dim>
					<dim>3</dim>
					<dim>3</dim>
				</port>
			</output>
		</layer>
		<layer id="103" name="conv3_1/dw" type="GroupConvolution" version="opset1">
			<data dilations="1,1" output_padding="0,0" pads_begin="1,1" pads_end="1,1" strides="1,1"/>
			<input>
				<port id="0">
					<dim>1</dim>
					<dim>120</dim>
					<dim>96</dim>
					<dim>168</dim>
				</port>
				<port id="1">
					<dim>120</dim>
					<dim>1</dim>
					<dim>1</dim>
					<dim>3</dim>
					<dim>3</dim>
				</port>
			</input>
			<output>
				<port id="2" precision="FP16">
					<dim>1</dim>
					<dim>120</dim>
					<dim>96</dim>
					<dim>168</dim>
				</port>
			</output>
		</layer>
		<layer id="104" name="data_add_107201072511125/EltwiseUnsqueeze11319_const533_const" type="Const" version="opset1">
			<data element_type="f16" offset="15892" shape="1,120,1,1" size="240"/>
			<output>
				<port id="1" precision="FP16">
					<dim>1</dim>
					<dim>120</dim>
					<dim>1</dim>
					<dim>1</dim>
				</port>
			</output>
		</layer>
		<layer id="105" name="conv3_1/dw/bn/variance/Fused_Add_" type="Add" version="opset1">
			<input>
				<port id="0">
					<dim>1</dim>
					<dim>120</dim>
					<dim>96</dim>
					<dim>168</dim>
				</port>
				<port id="1">
					<dim>1</dim>
					<dim>120</dim>
					<dim>1</dim>
					<dim>1</dim>
				</port>
			</input>
			<output>
				<port id="2" precision="FP16">
					<dim>1</dim>
					<dim>120</dim>
					<dim>96</dim>
					<dim>168</dim>
				</port>
			</output>
		</layer>
		<layer id="106" name="relu3_1/dw" type="ReLU" version="opset1">
			<input>
				<port id="0">
					<dim>1</dim>
					<dim>120</dim>
					<dim>96</dim>
					<dim>168</dim>
				</port>
			</input>
			<output>
				<port id="1" precision="FP16">
					<dim>1</dim>
					<dim>120</dim>
					<dim>96</dim>
					<dim>168</dim>
				</port>
			</output>
		</layer>
		<layer id="107" name="20572061_const" type="Const" version="opset1">
			<data element_type="f16" offset="876" shape="" size="2"/>
			<output>
				<port id="1" precision="FP16"/>
			</output>
		</layer>
		<layer id="108" name="20582062_const" type="Const" version="opset1">
			<data element_type="f16" offset="16132" shape="" size="2"/>
			<output>
				<port id="1" precision="FP16"/>
			</output>
		</layer>
		<layer id="109" name="20592063_const" type="Const" version="opset1">
			<data element_type="f16" offset="876" shape="" size="2"/>
			<output>
				<port id="1" precision="FP16"/>
			</output>
		</layer>
		<layer id="110" name="20602064_const" type="Const" version="opset1">
			<data element_type="f16" offset="16132" shape="" size="2"/>
			<output>
				<port id="1" precision="FP16"/>
			</output>
		</layer>
		<layer id="111" name="conv3_1/sep/fq_input_0" type="FakeQuantize" version="opset1">
			<data levels="256"/>
			<input>
				<port id="0">
					<dim>1</dim>
					<dim>120</dim>
					<dim>96</dim>
					<dim>168</dim>
				</port>
				<port id="1"/>
				<port id="2"/>
				<port id="3"/>
				<port id="4"/>
			</input>
			<output>
				<port id="5" precision="FP16">
					<dim>1</dim>
					<dim>120</dim>
					<dim>96</dim>
					<dim>168</dim>
				</port>
			</output>
		</layer>
		<layer id="112" name="conv3_1/sep/fq_weights_1/Convert_to_float/Cast_06907_const" type="Const" version="opset1">
			<data element_type="u8" offset="16134" shape="120,120,1,1" size="14400"/>
			<output>
				<port id="1" precision="U8">
					<dim>120</dim>
					<dim>120</dim>
					<dim>1</dim>
					<dim>1</dim>
				</port>
			</output>
		</layer>
		<layer id="113" name="conv3_1/sep/fq_weights_1/Convert_to_float" type="Convert" version="opset1">
			<data destination_type="f16"/>
			<input>
				<port id="0">
					<dim>120</dim>
					<dim>120</dim>
					<dim>1</dim>
					<dim>1</dim>
				</port>
			</input>
			<output>
				<port id="1" precision="FP16">
					<dim>120</dim>
					<dim>120</dim>
					<dim>1</dim>
					<dim>1</dim>
				</port>
			</output>
		</layer>
		<layer id="114" name="conv3_1/sep/fq_weights_1/Copy/out_low5583_const" type="Const" version="opset1">
			<data element_type="f16" offset="876" shape="1" size="2"/>
			<output>
				<port id="1" precision="FP16">
					<dim>1</dim>
				</port>
			</output>
		</layer>
		<layer id="115" name="conv3_1/sep/fq_weights_1/Copy/out_high5584_const" type="Const" version="opset1">
			<data element_type="f16" offset="878" shape="1" size="2"/>
			<output>
				<port id="1" precision="FP16">
					<dim>1</dim>
				</port>
			</output>
		</layer>
		<layer id="116" name="20692073_const" type="Const" version="opset1">
			<data element_type="f16" offset="30534" shape="120,1,1,1" size="240"/>
			<output>
				<port id="1" precision="FP16">
					<dim>120</dim>
					<dim>1</dim>
					<dim>1</dim>
					<dim>1</dim>
				</port>
			</output>
		</layer>
		<layer id="117" name="20702074_const" type="Const" version="opset1">
			<data element_type="f16" offset="30774" shape="120,1,1,1" size="240"/>
			<output>
				<port id="1" precision="FP16">
					<dim>120</dim>
					<dim>1</dim>
					<dim>1</dim>
					<dim>1</dim>
				</port>
			</output>
		</layer>
		<layer id="118" name="conv3_1/sep/fq_weights_1" type="FakeQuantize" version="opset1">
			<data levels="255"/>
			<input>
				<port id="0">
					<dim>120</dim>
					<dim>120</dim>
					<dim>1</dim>
					<dim>1</dim>
				</port>
				<port id="1">
					<dim>1</dim>
				</port>
				<port id="2">
					<dim>1</dim>
				</port>
				<port id="3">
					<dim>120</dim>
					<dim>1</dim>
					<dim>1</dim>
					<dim>1</dim>
				</port>
				<port id="4">
					<dim>120</dim>
					<dim>1</dim>
					<dim>1</dim>
					<dim>1</dim>
				</port>
			</input>
			<output>
				<port id="5" precision="FP16">
					<dim>120</dim>
					<dim>120</dim>
					<dim>1</dim>
					<dim>1</dim>
				</port>
			</output>
		</layer>
		<layer id="119" name="conv3_1/sep" type="Convolution" version="opset1">
			<data dilations="1,1" output_padding="0,0" pads_begin="0,0" pads_end="0,0" strides="1,1"/>
			<input>
				<port id="0">
					<dim>1</dim>
					<dim>120</dim>
					<dim>96</dim>
					<dim>168</dim>
				</port>
				<port id="1">
					<dim>120</dim>
					<dim>120</dim>
					<dim>1</dim>
					<dim>1</dim>
				</port>
			</input>
			<output>
				<port id="2" precision="FP16">
					<dim>1</dim>
					<dim>120</dim>
					<dim>96</dim>
					<dim>168</dim>
				</port>
			</output>
		</layer>
		<layer id="120" name="data_add_107281073311127/EltwiseUnsqueeze11327_const538_const" type="Const" version="opset1">
			<data element_type="f16" offset="31014" shape="1,120,1,1" size="240"/>
			<output>
				<port id="1" precision="FP16">
					<dim>1</dim>
					<dim>120</dim>
					<dim>1</dim>
					<dim>1</dim>
				</port>
			</output>
		</layer>
		<layer id="121" name="conv3_1/sep/bn/variance/Fused_Add_" type="Add" version="opset1">
			<input>
				<port id="0">
					<dim>1</dim>
					<dim>120</dim>
					<dim>96</dim>
					<dim>168</dim>
				</port>
				<port id="1">
					<dim>1</dim>
					<dim>120</dim>
					<dim>1</dim>
					<dim>1</dim>
				</port>
			</input>
			<output>
				<port id="2" precision="FP16">
					<dim>1</dim>
					<dim>120</dim>
					<dim>96</dim>
					<dim>168</dim>
				</port>
			</output>
		</layer>
		<layer id="122" name="relu3_1/sep" type="ReLU" version="opset1">
			<input>
				<port id="0">
					<dim>1</dim>
					<dim>120</dim>
					<dim>96</dim>
					<dim>168</dim>
				</port>
			</input>
			<output>
				<port id="1" precision="FP16">
					<dim>1</dim>
					<dim>120</dim>
					<dim>96</dim>
					<dim>168</dim>
				</port>
			</output>
		</layer>
		<layer id="123" name="25172521_const" type="Const" version="opset1">
			<data element_type="f16" offset="13812" shape="1,120,1,1" size="240"/>
			<output>
				<port id="1" precision="FP16">
					<dim>1</dim>
					<dim>120</dim>
					<dim>1</dim>
					<dim>1</dim>
				</port>
			</output>
		</layer>
		<layer id="124" name="25182522_const" type="Const" version="opset1">
			<data element_type="f16" offset="31254" shape="1,120,1,1" size="240"/>
			<output>
				<port id="1" precision="FP16">
					<dim>1</dim>
					<dim>120</dim>
					<dim>1</dim>
					<dim>1</dim>
				</port>
			</output>
		</layer>
		<layer id="125" name="25192523_const" type="Const" version="opset1">
			<data element_type="f16" offset="13812" shape="1,120,1,1" size="240"/>
			<output>
				<port id="1" precision="FP16">
					<dim>1</dim>
					<dim>120</dim>
					<dim>1</dim>
					<dim>1</dim>
				</port>
			</output>
		</layer>
		<layer id="126" name="25202524_const" type="Const" version="opset1">
			<data element_type="f16" offset="31254" shape="1,120,1,1" size="240"/>
			<output>
				<port id="1" precision="FP16">
					<dim>1</dim>
					<dim>120</dim>
					<dim>1</dim>
					<dim>1</dim>
				</port>
			</output>
		</layer>
		<layer id="127" name="conv3_2/dw/fq_input_0" type="FakeQuantize" version="opset1">
			<data levels="256"/>
			<input>
				<port id="0">
					<dim>1</dim>
					<dim>120</dim>
					<dim>96</dim>
					<dim>168</dim>
				</port>
				<port id="1">
					<dim>1</dim>
					<dim>120</dim>
					<dim>1</dim>
					<dim>1</dim>
				</port>
				<port id="2">
					<dim>1</dim>
					<dim>120</dim>
					<dim>1</dim>
					<dim>1</dim>
				</port>
				<port id="3">
					<dim>1</dim>
					<dim>120</dim>
					<dim>1</dim>
					<dim>1</dim>
				</port>
				<port id="4">
					<dim>1</dim>
					<dim>120</dim>
					<dim>1</dim>
					<dim>1</dim>
				</port>
			</input>
			<output>
				<port id="5" precision="FP16">
					<dim>1</dim>
					<dim>120</dim>
					<dim>96</dim>
					<dim>168</dim>
				</port>
			</output>
		</layer>
		<layer id="128" name="conv3_2/dw/fq_weights_1/Convert_to_float/Cast_06873_const" type="Const" version="opset1">
			<data element_type="u8" offset="31494" shape="120,1,3,3" size="1080"/>
			<output>
				<port id="1" precision="U8">
					<dim>120</dim>
					<dim>1</dim>
					<dim>3</dim>
					<dim>3</dim>
				</port>
			</output>
		</layer>
		<layer id="129" name="conv3_2/dw/fq_weights_1/Convert_to_float" type="Convert" version="opset1">
			<data destination_type="f16"/>
			<input>
				<port id="0">
					<dim>120</dim>
					<dim>1</dim>
					<dim>3</dim>
					<dim>3</dim>
				</port>
			</input>
			<output>
				<port id="1" precision="FP16">
					<dim>120</dim>
					<dim>1</dim>
					<dim>3</dim>
					<dim>3</dim>
				</port>
			</output>
		</layer>
		<layer id="130" name="conv3_2/dw/fq_weights_1/Copy/out_low5783_const" type="Const" version="opset1">
			<data element_type="f16" offset="876" shape="1" size="2"/>
			<output>
				<port id="1" precision="FP16">
					<dim>1</dim>
				</port>
			</output>
		</layer>
		<layer id="131" name="conv3_2/dw/fq_weights_1/Copy/out_high5784_const" type="Const" version="opset1">
			<data element_type="f16" offset="878" shape="1" size="2"/>
			<output>
				<port id="1" precision="FP16">
					<dim>1</dim>
				</port>
			</output>
		</layer>
		<layer id="132" name="25292533_const" type="Const" version="opset1">
			<data element_type="f16" offset="32574" shape="120,1,1,1" size="240"/>
			<output>
				<port id="1" precision="FP16">
					<dim>120</dim>
					<dim>1</dim>
					<dim>1</dim>
					<dim>1</dim>
				</port>
			</output>
		</layer>
		<layer id="133" name="25302534_const" type="Const" version="opset1">
			<data element_type="f16" offset="32814" shape="120,1,1,1" size="240"/>
			<output>
				<port id="1" precision="FP16">
					<dim>120</dim>
					<dim>1</dim>
					<dim>1</dim>
					<dim>1</dim>
				</port>
			</output>
		</layer>
		<layer id="134" name="conv3_2/dw/fq_weights_1" type="FakeQuantize" version="opset1">
			<data levels="255"/>
			<input>
				<port id="0">
					<dim>120</dim>
					<dim>1</dim>
					<dim>3</dim>
					<dim>3</dim>
				</port>
				<port id="1">
					<dim>1</dim>
				</port>
				<port id="2">
					<dim>1</dim>
				</port>
				<port id="3">
					<dim>120</dim>
					<dim>1</dim>
					<dim>1</dim>
					<dim>1</dim>
				</port>
				<port id="4">
					<dim>120</dim>
					<dim>1</dim>
					<dim>1</dim>
					<dim>1</dim>
				</port>
			</input>
			<output>
				<port id="5" precision="FP16">
					<dim>120</dim>
					<dim>1</dim>
					<dim>3</dim>
					<dim>3</dim>
				</port>
			</output>
		</layer>
		<layer id="135" name="7558/value7560_const" type="Const" version="opset1">
			<data element_type="i64" offset="15852" shape="5" size="40"/>
			<output>
				<port id="1" precision="I64">
					<dim>5</dim>
				</port>
			</output>
		</layer>
		<layer id="136" name="7558" type="Reshape" version="opset1">
			<data special_zero="True"/>
			<input>
				<port id="0">
					<dim>120</dim>
					<dim>1</dim>
					<dim>3</dim>
					<dim>3</dim>
				</port>
				<port id="1">
					<dim>5</dim>
				</port>
			</input>
			<output>
				<port id="2" precision="FP16">
					<dim>120</dim>
					<dim>1</dim>
					<dim>1</dim>
					<dim>3</dim>
					<dim>3</dim>
				</port>
			</output>
		</layer>
		<layer id="137" name="conv3_2/dw" type="GroupConvolution" version="opset1">
			<data dilations="1,1" output_padding="0,0" pads_begin="1,1" pads_end="1,1" strides="2,2"/>
			<input>
				<port id="0">
					<dim>1</dim>
					<dim>120</dim>
					<dim>96</dim>
					<dim>168</dim>
				</port>
				<port id="1">
					<dim>120</dim>
					<dim>1</dim>
					<dim>1</dim>
					<dim>3</dim>
					<dim>3</dim>
				</port>
			</input>
			<output>
				<port id="2" precision="FP16">
					<dim>1</dim>
					<dim>120</dim>
					<dim>48</dim>
					<dim>84</dim>
				</port>
			</output>
		</layer>
		<layer id="138" name="data_add_107361074111129/EltwiseUnsqueeze11335_const543_const" type="Const" version="opset1">
			<data element_type="f16" offset="33054" shape="1,120,1,1" size="240"/>
			<output>
				<port id="1" precision="FP16">
					<dim>1</dim>
					<dim>120</dim>
					<dim>1</dim>
					<dim>1</dim>
				</port>
			</output>
		</layer>
		<layer id="139" name="conv3_2/dw/bn/variance/Fused_Add_" type="Add" version="opset1">
			<input>
				<port id="0">
					<dim>1</dim>
					<dim>120</dim>
					<dim>48</dim>
					<dim>84</dim>
				</port>
				<port id="1">
					<dim>1</dim>
					<dim>120</dim>
					<dim>1</dim>
					<dim>1</dim>
				</port>
			</input>
			<output>
				<port id="2" precision="FP16">
					<dim>1</dim>
					<dim>120</dim>
					<dim>48</dim>
					<dim>84</dim>
				</port>
			</output>
		</layer>
		<layer id="140" name="relu3_2/dw" type="ReLU" version="opset1">
			<input>
				<port id="0">
					<dim>1</dim>
					<dim>120</dim>
					<dim>48</dim>
					<dim>84</dim>
				</port>
			</input>
			<output>
				<port id="1" precision="FP16">
					<dim>1</dim>
					<dim>120</dim>
					<dim>48</dim>
					<dim>84</dim>
				</port>
			</output>
		</layer>
		<layer id="141" name="17371741_const" type="Const" version="opset1">
			<data element_type="f16" offset="876" shape="" size="2"/>
			<output>
				<port id="1" precision="FP16"/>
			</output>
		</layer>
		<layer id="142" name="17381742_const" type="Const" version="opset1">
			<data element_type="f16" offset="33294" shape="" size="2"/>
			<output>
				<port id="1" precision="FP16"/>
			</output>
		</layer>
		<layer id="143" name="17391743_const" type="Const" version="opset1">
			<data element_type="f16" offset="876" shape="" size="2"/>
			<output>
				<port id="1" precision="FP16"/>
			</output>
		</layer>
		<layer id="144" name="17401744_const" type="Const" version="opset1">
			<data element_type="f16" offset="33294" shape="" size="2"/>
			<output>
				<port id="1" precision="FP16"/>
			</output>
		</layer>
		<layer id="145" name="conv3_2/sep/fq_input_0" type="FakeQuantize" version="opset1">
			<data levels="256"/>
			<input>
				<port id="0">
					<dim>1</dim>
					<dim>120</dim>
					<dim>48</dim>
					<dim>84</dim>
				</port>
				<port id="1"/>
				<port id="2"/>
				<port id="3"/>
				<port id="4"/>
			</input>
			<output>
				<port id="5" precision="FP16">
					<dim>1</dim>
					<dim>120</dim>
					<dim>48</dim>
					<dim>84</dim>
				</port>
			</output>
		</layer>
		<layer id="146" name="conv3_2/sep/fq_weights_1/Convert_to_float/Cast_06745_const" type="Const" version="opset1">
			<data element_type="u8" offset="33296" shape="240,120,1,1" size="28800"/>
			<output>
				<port id="1" precision="U8">
					<dim>240</dim>
					<dim>120</dim>
					<dim>1</dim>
					<dim>1</dim>
				</port>
			</output>
		</layer>
		<layer id="147" name="conv3_2/sep/fq_weights_1/Convert_to_float" type="Convert" version="opset1">
			<data destination_type="f16"/>
			<input>
				<port id="0">
					<dim>240</dim>
					<dim>120</dim>
					<dim>1</dim>
					<dim>1</dim>
				</port>
			</input>
			<output>
				<port id="1" precision="FP16">
					<dim>240</dim>
					<dim>120</dim>
					<dim>1</dim>
					<dim>1</dim>
				</port>
			</output>
		</layer>
		<layer id="148" name="conv3_2/sep/fq_weights_1/Copy/out_low5647_const" type="Const" version="opset1">
			<data element_type="f16" offset="876" shape="1" size="2"/>
			<output>
				<port id="1" precision="FP16">
					<dim>1</dim>
				</port>
			</output>
		</layer>
		<layer id="149" name="conv3_2/sep/fq_weights_1/Copy/out_high5648_const" type="Const" version="opset1">
			<data element_type="f16" offset="878" shape="1" size="2"/>
			<output>
				<port id="1" precision="FP16">
					<dim>1</dim>
				</port>
			</output>
		</layer>
		<layer id="150" name="17491753_const" type="Const" version="opset1">
			<data element_type="f16" offset="62096" shape="240,1,1,1" size="480"/>
			<output>
				<port id="1" precision="FP16">
					<dim>240</dim>
					<dim>1</dim>
					<dim>1</dim>
					<dim>1</dim>
				</port>
			</output>
		</layer>
		<layer id="151" name="17501754_const" type="Const" version="opset1">
			<data element_type="f16" offset="62576" shape="240,1,1,1" size="480"/>
			<output>
				<port id="1" precision="FP16">
					<dim>240</dim>
					<dim>1</dim>
					<dim>1</dim>
					<dim>1</dim>
				</port>
			</output>
		</layer>
		<layer id="152" name="conv3_2/sep/fq_weights_1" type="FakeQuantize" version="opset1">
			<data levels="255"/>
			<input>
				<port id="0">
					<dim>240</dim>
					<dim>120</dim>
					<dim>1</dim>
					<dim>1</dim>
				</port>
				<port id="1">
					<dim>1</dim>
				</port>
				<port id="2">
					<dim>1</dim>
				</port>
				<port id="3">
					<dim>240</dim>
					<dim>1</dim>
					<dim>1</dim>
					<dim>1</dim>
				</port>
				<port id="4">
					<dim>240</dim>
					<dim>1</dim>
					<dim>1</dim>
					<dim>1</dim>
				</port>
			</input>
			<output>
				<port id="5" precision="FP16">
					<dim>240</dim>
					<dim>120</dim>
					<dim>1</dim>
					<dim>1</dim>
				</port>
			</output>
		</layer>
		<layer id="153" name="conv3_2/sep" type="Convolution" version="opset1">
			<data dilations="1,1" output_padding="0,0" pads_begin="0,0" pads_end="0,0" strides="1,1"/>
			<input>
				<port id="0">
					<dim>1</dim>
					<dim>120</dim>
					<dim>48</dim>
					<dim>84</dim>
				</port>
				<port id="1">
					<dim>240</dim>
					<dim>120</dim>
					<dim>1</dim>
					<dim>1</dim>
				</port>
			</input>
			<output>
				<port id="2" precision="FP16">
					<dim>1</dim>
					<dim>240</dim>
					<dim>48</dim>
					<dim>84</dim>
				</port>
			</output>
		</layer>
		<layer id="154" name="data_add_107441074911131/EltwiseUnsqueeze11343_const548_const" type="Const" version="opset1">
			<data element_type="f16" offset="63056" shape="1,240,1,1" size="480"/>
			<output>
				<port id="1" precision="FP16">
					<dim>1</dim>
					<dim>240</dim>
					<dim>1</dim>
					<dim>1</dim>
				</port>
			</output>
		</layer>
		<layer id="155" name="conv3_2/sep/bn/variance/Fused_Add_" type="Add" version="opset1">
			<input>
				<port id="0">
					<dim>1</dim>
					<dim>240</dim>
					<dim>48</dim>
					<dim>84</dim>
				</port>
				<port id="1">
					<dim>1</dim>
					<dim>240</dim>
					<dim>1</dim>
					<dim>1</dim>
				</port>
			</input>
			<output>
				<port id="2" precision="FP16">
					<dim>1</dim>
					<dim>240</dim>
					<dim>48</dim>
					<dim>84</dim>
				</port>
			</output>
		</layer>
		<layer id="156" name="relu3_2/sep" type="ReLU" version="opset1">
			<input>
				<port id="0">
					<dim>1</dim>
					<dim>240</dim>
					<dim>48</dim>
					<dim>84</dim>
				</port>
			</input>
			<output>
				<port id="1" precision="FP16">
					<dim>1</dim>
					<dim>240</dim>
					<dim>48</dim>
					<dim>84</dim>
				</port>
			</output>
		</layer>
		<layer id="157" name="27772781_const" type="Const" version="opset1">
			<data element_type="f16" offset="63536" shape="1,240,1,1" size="480"/>
			<output>
				<port id="1" precision="FP16">
					<dim>1</dim>
					<dim>240</dim>
					<dim>1</dim>
					<dim>1</dim>
				</port>
			</output>
		</layer>
		<layer id="158" name="27782782_const" type="Const" version="opset1">
			<data element_type="f16" offset="64016" shape="1,240,1,1" size="480"/>
			<output>
				<port id="1" precision="FP16">
					<dim>1</dim>
					<dim>240</dim>
					<dim>1</dim>
					<dim>1</dim>
				</port>
			</output>
		</layer>
		<layer id="159" name="27792783_const" type="Const" version="opset1">
			<data element_type="f16" offset="63536" shape="1,240,1,1" size="480"/>
			<output>
				<port id="1" precision="FP16">
					<dim>1</dim>
					<dim>240</dim>
					<dim>1</dim>
					<dim>1</dim>
				</port>
			</output>
		</layer>
		<layer id="160" name="27802784_const" type="Const" version="opset1">
			<data element_type="f16" offset="64016" shape="1,240,1,1" size="480"/>
			<output>
				<port id="1" precision="FP16">
					<dim>1</dim>
					<dim>240</dim>
					<dim>1</dim>
					<dim>1</dim>
				</port>
			</output>
		</layer>
		<layer id="161" name="conv4_1/dw/fq_input_0" type="FakeQuantize" version="opset1">
			<data levels="256"/>
			<input>
				<port id="0">
					<dim>1</dim>
					<dim>240</dim>
					<dim>48</dim>
					<dim>84</dim>
				</port>
				<port id="1">
					<dim>1</dim>
					<dim>240</dim>
					<dim>1</dim>
					<dim>1</dim>
				</port>
				<port id="2">
					<dim>1</dim>
					<dim>240</dim>
					<dim>1</dim>
					<dim>1</dim>
				</port>
				<port id="3">
					<dim>1</dim>
					<dim>240</dim>
					<dim>1</dim>
					<dim>1</dim>
				</port>
				<port id="4">
					<dim>1</dim>
					<dim>240</dim>
					<dim>1</dim>
					<dim>1</dim>
				</port>
			</input>
			<output>
				<port id="5" precision="FP16">
					<dim>1</dim>
					<dim>240</dim>
					<dim>48</dim>
					<dim>84</dim>
				</port>
			</output>
		</layer>
		<layer id="162" name="conv4_1/dw/fq_weights_1/Convert_to_float/Cast_06827_const" type="Const" version="opset1">
			<data element_type="u8" offset="64496" shape="240,1,3,3" size="2160"/>
			<output>
				<port id="1" precision="U8">
					<dim>240</dim>
					<dim>1</dim>
					<dim>3</dim>
					<dim>3</dim>
				</port>
			</output>
		</layer>
		<layer id="163" name="conv4_1/dw/fq_weights_1/Convert_to_float" type="Convert" version="opset1">
			<data destination_type="f16"/>
			<input>
				<port id="0">
					<dim>240</dim>
					<dim>1</dim>
					<dim>3</dim>
					<dim>3</dim>
				</port>
			</input>
			<output>
				<port id="1" precision="FP16">
					<dim>240</dim>
					<dim>1</dim>
					<dim>3</dim>
					<dim>3</dim>
				</port>
			</output>
		</layer>
		<layer id="164" name="conv4_1/dw/fq_weights_1/Copy/out_low5863_const" type="Const" version="opset1">
			<data element_type="f16" offset="876" shape="1" size="2"/>
			<output>
				<port id="1" precision="FP16">
					<dim>1</dim>
				</port>
			</output>
		</layer>
		<layer id="165" name="conv4_1/dw/fq_weights_1/Copy/out_high5864_const" type="Const" version="opset1">
			<data element_type="f16" offset="878" shape="1" size="2"/>
			<output>
				<port id="1" precision="FP16">
					<dim>1</dim>
				</port>
			</output>
		</layer>
		<layer id="166" name="27892793_const" type="Const" version="opset1">
			<data element_type="f16" offset="66656" shape="240,1,1,1" size="480"/>
			<output>
				<port id="1" precision="FP16">
					<dim>240</dim>
					<dim>1</dim>
					<dim>1</dim>
					<dim>1</dim>
				</port>
			</output>
		</layer>
		<layer id="167" name="27902794_const" type="Const" version="opset1">
			<data element_type="f16" offset="67136" shape="240,1,1,1" size="480"/>
			<output>
				<port id="1" precision="FP16">
					<dim>240</dim>
					<dim>1</dim>
					<dim>1</dim>
					<dim>1</dim>
				</port>
			</output>
		</layer>
		<layer id="168" name="conv4_1/dw/fq_weights_1" type="FakeQuantize" version="opset1">
			<data levels="255"/>
			<input>
				<port id="0">
					<dim>240</dim>
					<dim>1</dim>
					<dim>3</dim>
					<dim>3</dim>
				</port>
				<port id="1">
					<dim>1</dim>
				</port>
				<port id="2">
					<dim>1</dim>
				</port>
				<port id="3">
					<dim>240</dim>
					<dim>1</dim>
					<dim>1</dim>
					<dim>1</dim>
				</port>
				<port id="4">
					<dim>240</dim>
					<dim>1</dim>
					<dim>1</dim>
					<dim>1</dim>
				</port>
			</input>
			<output>
				<port id="5" precision="FP16">
					<dim>240</dim>
					<dim>1</dim>
					<dim>3</dim>
					<dim>3</dim>
				</port>
			</output>
		</layer>
		<layer id="169" name="7582/value7584_const" type="Const" version="opset1">
			<data element_type="i64" offset="67616" shape="5" size="40"/>
			<output>
				<port id="1" precision="I64">
					<dim>5</dim>
				</port>
			</output>
		</layer>
		<layer id="170" name="7582" type="Reshape" version="opset1">
			<data special_zero="True"/>
			<input>
				<port id="0">
					<dim>240</dim>
					<dim>1</dim>
					<dim>3</dim>
					<dim>3</dim>
				</port>
				<port id="1">
					<dim>5</dim>
				</port>
			</input>
			<output>
				<port id="2" precision="FP16">
					<dim>240</dim>
					<dim>1</dim>
					<dim>1</dim>
					<dim>3</dim>
					<dim>3</dim>
				</port>
			</output>
		</layer>
		<layer id="171" name="conv4_1/dw" type="GroupConvolution" version="opset1">
			<data dilations="1,1" output_padding="0,0" pads_begin="1,1" pads_end="1,1" strides="1,1"/>
			<input>
				<port id="0">
					<dim>1</dim>
					<dim>240</dim>
					<dim>48</dim>
					<dim>84</dim>
				</port>
				<port id="1">
					<dim>240</dim>
					<dim>1</dim>
					<dim>1</dim>
					<dim>3</dim>
					<dim>3</dim>
				</port>
			</input>
			<output>
				<port id="2" precision="FP16">
					<dim>1</dim>
					<dim>240</dim>
					<dim>48</dim>
					<dim>84</dim>
				</port>
			</output>
		</layer>
		<layer id="172" name="data_add_107521075711133/EltwiseUnsqueeze11351_const553_const" type="Const" version="opset1">
			<data element_type="f16" offset="67656" shape="1,240,1,1" size="480"/>
			<output>
				<port id="1" precision="FP16">
					<dim>1</dim>
					<dim>240</dim>
					<dim>1</dim>
					<dim>1</dim>
				</port>
			</output>
		</layer>
		<layer id="173" name="conv4_1/dw/bn/variance/Fused_Add_" type="Add" version="opset1">
			<input>
				<port id="0">
					<dim>1</dim>
					<dim>240</dim>
					<dim>48</dim>
					<dim>84</dim>
				</port>
				<port id="1">
					<dim>1</dim>
					<dim>240</dim>
					<dim>1</dim>
					<dim>1</dim>
				</port>
			</input>
			<output>
				<port id="2" precision="FP16">
					<dim>1</dim>
					<dim>240</dim>
					<dim>48</dim>
					<dim>84</dim>
				</port>
			</output>
		</layer>
		<layer id="174" name="relu4_1/dw" type="ReLU" version="opset1">
			<input>
				<port id="0">
					<dim>1</dim>
					<dim>240</dim>
					<dim>48</dim>
					<dim>84</dim>
				</port>
			</input>
			<output>
				<port id="1" precision="FP16">
					<dim>1</dim>
					<dim>240</dim>
					<dim>48</dim>
					<dim>84</dim>
				</port>
			</output>
		</layer>
		<layer id="175" name="25572561_const" type="Const" version="opset1">
			<data element_type="f16" offset="876" shape="" size="2"/>
			<output>
				<port id="1" precision="FP16"/>
			</output>
		</layer>
		<layer id="176" name="25582562_const" type="Const" version="opset1">
			<data element_type="f16" offset="68136" shape="" size="2"/>
			<output>
				<port id="1" precision="FP16"/>
			</output>
		</layer>
		<layer id="177" name="25592563_const" type="Const" version="opset1">
			<data element_type="f16" offset="876" shape="" size="2"/>
			<output>
				<port id="1" precision="FP16"/>
			</output>
		</layer>
		<layer id="178" name="25602564_const" type="Const" version="opset1">
			<data element_type="f16" offset="68136" shape="" size="2"/>
			<output>
				<port id="1" precision="FP16"/>
			</output>
		</layer>
		<layer id="179" name="conv4_1/sep/fq_input_0" type="FakeQuantize" version="opset1">
			<data levels="256"/>
			<input>
				<port id="0">
					<dim>1</dim>
					<dim>240</dim>
					<dim>48</dim>
					<dim>84</dim>
				</port>
				<port id="1"/>
				<port id="2"/>
				<port id="3"/>
				<port id="4"/>
			</input>
			<output>
				<port id="5" precision="FP16">
					<dim>1</dim>
					<dim>240</dim>
					<dim>48</dim>
					<dim>84</dim>
				</port>
			</output>
		</layer>
		<layer id="180" name="conv4_1/sep/fq_weights_1/Convert_to_float/Cast_06877_const" type="Const" version="opset1">
			<data element_type="u8" offset="68138" shape="232,240,1,1" size="55680"/>
			<output>
				<port id="1" precision="U8">
					<dim>232</dim>
					<dim>240</dim>
					<dim>1</dim>
					<dim>1</dim>
				</port>
			</output>
		</layer>
		<layer id="181" name="conv4_1/sep/fq_weights_1/Convert_to_float" type="Convert" version="opset1">
			<data destination_type="f16"/>
			<input>
				<port id="0">
					<dim>232</dim>
					<dim>240</dim>
					<dim>1</dim>
					<dim>1</dim>
				</port>
			</input>
			<output>
				<port id="1" precision="FP16">
					<dim>232</dim>
					<dim>240</dim>
					<dim>1</dim>
					<dim>1</dim>
				</port>
			</output>
		</layer>
		<layer id="182" name="conv4_1/sep/fq_weights_1/Copy/out_low5735_const" type="Const" version="opset1">
			<data element_type="f16" offset="876" shape="1" size="2"/>
			<output>
				<port id="1" precision="FP16">
					<dim>1</dim>
				</port>
			</output>
		</layer>
		<layer id="183" name="conv4_1/sep/fq_weights_1/Copy/out_high5736_const" type="Const" version="opset1">
			<data element_type="f16" offset="878" shape="1" size="2"/>
			<output>
				<port id="1" precision="FP16">
					<dim>1</dim>
				</port>
			</output>
		</layer>
		<layer id="184" name="25692573_const" type="Const" version="opset1">
			<data element_type="f16" offset="123818" shape="232,1,1,1" size="464"/>
			<output>
				<port id="1" precision="FP16">
					<dim>232</dim>
					<dim>1</dim>
					<dim>1</dim>
					<dim>1</dim>
				</port>
			</output>
		</layer>
		<layer id="185" name="25702574_const" type="Const" version="opset1">
			<data element_type="f16" offset="124282" shape="232,1,1,1" size="464"/>
			<output>
				<port id="1" precision="FP16">
					<dim>232</dim>
					<dim>1</dim>
					<dim>1</dim>
					<dim>1</dim>
				</port>
			</output>
		</layer>
		<layer id="186" name="conv4_1/sep/fq_weights_1" type="FakeQuantize" version="opset1">
			<data levels="255"/>
			<input>
				<port id="0">
					<dim>232</dim>
					<dim>240</dim>
					<dim>1</dim>
					<dim>1</dim>
				</port>
				<port id="1">
					<dim>1</dim>
				</port>
				<port id="2">
					<dim>1</dim>
				</port>
				<port id="3">
					<dim>232</dim>
					<dim>1</dim>
					<dim>1</dim>
					<dim>1</dim>
				</port>
				<port id="4">
					<dim>232</dim>
					<dim>1</dim>
					<dim>1</dim>
					<dim>1</dim>
				</port>
			</input>
			<output>
				<port id="5" precision="FP16">
					<dim>232</dim>
					<dim>240</dim>
					<dim>1</dim>
					<dim>1</dim>
				</port>
			</output>
		</layer>
		<layer id="187" name="conv4_1/sep" type="Convolution" version="opset1">
			<data dilations="1,1" output_padding="0,0" pads_begin="0,0" pads_end="0,0" strides="1,1"/>
			<input>
				<port id="0">
					<dim>1</dim>
					<dim>240</dim>
					<dim>48</dim>
					<dim>84</dim>
				</port>
				<port id="1">
					<dim>232</dim>
					<dim>240</dim>
					<dim>1</dim>
					<dim>1</dim>
				</port>
			</input>
			<output>
				<port id="2" precision="FP16">
					<dim>1</dim>
					<dim>232</dim>
					<dim>48</dim>
					<dim>84</dim>
				</port>
			</output>
		</layer>
		<layer id="188" name="data_add_107601076511135/EltwiseUnsqueeze11359_const558_const" type="Const" version="opset1">
			<data element_type="f16" offset="124746" shape="1,232,1,1" size="464"/>
			<output>
				<port id="1" precision="FP16">
					<dim>1</dim>
					<dim>232</dim>
					<dim>1</dim>
					<dim>1</dim>
				</port>
			</output>
		</layer>
		<layer id="189" name="conv4_1/sep/bn/variance/Fused_Add_" type="Add" version="opset1">
			<input>
				<port id="0">
					<dim>1</dim>
					<dim>232</dim>
					<dim>48</dim>
					<dim>84</dim>
				</port>
				<port id="1">
					<dim>1</dim>
					<dim>232</dim>
					<dim>1</dim>
					<dim>1</dim>
				</port>
			</input>
			<output>
				<port id="2" precision="FP16">
					<dim>1</dim>
					<dim>232</dim>
					<dim>48</dim>
					<dim>84</dim>
				</port>
			</output>
		</layer>
		<layer id="190" name="relu4_1/sep" type="ReLU" version="opset1">
			<input>
				<port id="0">
					<dim>1</dim>
					<dim>232</dim>
					<dim>48</dim>
					<dim>84</dim>
				</port>
			</input>
			<output>
				<port id="1" precision="FP16">
					<dim>1</dim>
					<dim>232</dim>
					<dim>48</dim>
					<dim>84</dim>
				</port>
			</output>
		</layer>
		<layer id="191" name="21172121_const" type="Const" version="opset1">
			<data element_type="f16" offset="125210" shape="1,232,1,1" size="464"/>
			<output>
				<port id="1" precision="FP16">
					<dim>1</dim>
					<dim>232</dim>
					<dim>1</dim>
					<dim>1</dim>
				</port>
			</output>
		</layer>
		<layer id="192" name="21182122_const" type="Const" version="opset1">
			<data element_type="f16" offset="125674" shape="1,232,1,1" size="464"/>
			<output>
				<port id="1" precision="FP16">
					<dim>1</dim>
					<dim>232</dim>
					<dim>1</dim>
					<dim>1</dim>
				</port>
			</output>
		</layer>
		<layer id="193" name="21192123_const" type="Const" version="opset1">
			<data element_type="f16" offset="125210" shape="1,232,1,1" size="464"/>
			<output>
				<port id="1" precision="FP16">
					<dim>1</dim>
					<dim>232</dim>
					<dim>1</dim>
					<dim>1</dim>
				</port>
			</output>
		</layer>
		<layer id="194" name="21202124_const" type="Const" version="opset1">
			<data element_type="f16" offset="125674" shape="1,232,1,1" size="464"/>
			<output>
				<port id="1" precision="FP16">
					<dim>1</dim>
					<dim>232</dim>
					<dim>1</dim>
					<dim>1</dim>
				</port>
			</output>
		</layer>
		<layer id="195" name="conv4_2/dw/fq_input_0" type="FakeQuantize" version="opset1">
			<data levels="256"/>
			<input>
				<port id="0">
					<dim>1</dim>
					<dim>232</dim>
					<dim>48</dim>
					<dim>84</dim>
				</port>
				<port id="1">
					<dim>1</dim>
					<dim>232</dim>
					<dim>1</dim>
					<dim>1</dim>
				</port>
				<port id="2">
					<dim>1</dim>
					<dim>232</dim>
					<dim>1</dim>
					<dim>1</dim>
				</port>
				<port id="3">
					<dim>1</dim>
					<dim>232</dim>
					<dim>1</dim>
					<dim>1</dim>
				</port>
				<port id="4">
					<dim>1</dim>
					<dim>232</dim>
					<dim>1</dim>
					<dim>1</dim>
				</port>
			</input>
			<output>
				<port id="5" precision="FP16">
					<dim>1</dim>
					<dim>232</dim>
					<dim>48</dim>
					<dim>84</dim>
				</port>
			</output>
		</layer>
		<layer id="196" name="conv4_2/dw/fq_weights_1/Convert_to_float/Cast_06813_const" type="Const" version="opset1">
			<data element_type="u8" offset="126138" shape="232,1,3,3" size="2088"/>
			<output>
				<port id="1" precision="U8">
					<dim>232</dim>
					<dim>1</dim>
					<dim>3</dim>
					<dim>3</dim>
				</port>
			</output>
		</layer>
		<layer id="197" name="conv4_2/dw/fq_weights_1/Convert_to_float" type="Convert" version="opset1">
			<data destination_type="f16"/>
			<input>
				<port id="0">
					<dim>232</dim>
					<dim>1</dim>
					<dim>3</dim>
					<dim>3</dim>
				</port>
			</input>
			<output>
				<port id="1" precision="FP16">
					<dim>232</dim>
					<dim>1</dim>
					<dim>3</dim>
					<dim>3</dim>
				</port>
			</output>
		</layer>
		<layer id="198" name="conv4_2/dw/fq_weights_1/Copy/out_low5687_const" type="Const" version="opset1">
			<data element_type="f16" offset="876" shape="1" size="2"/>
			<output>
				<port id="1" precision="FP16">
					<dim>1</dim>
				</port>
			</output>
		</layer>
		<layer id="199" name="conv4_2/dw/fq_weights_1/Copy/out_high5688_const" type="Const" version="opset1">
			<data element_type="f16" offset="878" shape="1" size="2"/>
			<output>
				<port id="1" precision="FP16">
					<dim>1</dim>
				</port>
			</output>
		</layer>
		<layer id="200" name="21292133_const" type="Const" version="opset1">
			<data element_type="f16" offset="128226" shape="232,1,1,1" size="464"/>
			<output>
				<port id="1" precision="FP16">
					<dim>232</dim>
					<dim>1</dim>
					<dim>1</dim>
					<dim>1</dim>
				</port>
			</output>
		</layer>
		<layer id="201" name="21302134_const" type="Const" version="opset1">
			<data element_type="f16" offset="128690" shape="232,1,1,1" size="464"/>
			<output>
				<port id="1" precision="FP16">
					<dim>232</dim>
					<dim>1</dim>
					<dim>1</dim>
					<dim>1</dim>
				</port>
			</output>
		</layer>
		<layer id="202" name="conv4_2/dw/fq_weights_1" type="FakeQuantize" version="opset1">
			<data levels="255"/>
			<input>
				<port id="0">
					<dim>232</dim>
					<dim>1</dim>
					<dim>3</dim>
					<dim>3</dim>
				</port>
				<port id="1">
					<dim>1</dim>
				</port>
				<port id="2">
					<dim>1</dim>
				</port>
				<port id="3">
					<dim>232</dim>
					<dim>1</dim>
					<dim>1</dim>
					<dim>1</dim>
				</port>
				<port id="4">
					<dim>232</dim>
					<dim>1</dim>
					<dim>1</dim>
					<dim>1</dim>
				</port>
			</input>
			<output>
				<port id="5" precision="FP16">
					<dim>232</dim>
					<dim>1</dim>
					<dim>3</dim>
					<dim>3</dim>
				</port>
			</output>
		</layer>
		<layer id="203" name="7586/value7588_const" type="Const" version="opset1">
			<data element_type="i64" offset="129154" shape="5" size="40"/>
			<output>
				<port id="1" precision="I64">
					<dim>5</dim>
				</port>
			</output>
		</layer>
		<layer id="204" name="7586" type="Reshape" version="opset1">
			<data special_zero="True"/>
			<input>
				<port id="0">
					<dim>232</dim>
					<dim>1</dim>
					<dim>3</dim>
					<dim>3</dim>
				</port>
				<port id="1">
					<dim>5</dim>
				</port>
			</input>
			<output>
				<port id="2" precision="FP16">
					<dim>232</dim>
					<dim>1</dim>
					<dim>1</dim>
					<dim>3</dim>
					<dim>3</dim>
				</port>
			</output>
		</layer>
		<layer id="205" name="conv4_2/dw" type="GroupConvolution" version="opset1">
			<data dilations="1,1" output_padding="0,0" pads_begin="1,1" pads_end="1,1" strides="2,2"/>
			<input>
				<port id="0">
					<dim>1</dim>
					<dim>232</dim>
					<dim>48</dim>
					<dim>84</dim>
				</port>
				<port id="1">
					<dim>232</dim>
					<dim>1</dim>
					<dim>1</dim>
					<dim>3</dim>
					<dim>3</dim>
				</port>
			</input>
			<output>
				<port id="2" precision="FP16">
					<dim>1</dim>
					<dim>232</dim>
					<dim>24</dim>
					<dim>42</dim>
				</port>
			</output>
		</layer>
		<layer id="206" name="data_add_107681077311137/EltwiseUnsqueeze11367_const563_const" type="Const" version="opset1">
			<data element_type="f16" offset="129194" shape="1,232,1,1" size="464"/>
			<output>
				<port id="1" precision="FP16">
					<dim>1</dim>
					<dim>232</dim>
					<dim>1</dim>
					<dim>1</dim>
				</port>
			</output>
		</layer>
		<layer id="207" name="conv4_2/dw/bn/variance/Fused_Add_" type="Add" version="opset1">
			<input>
				<port id="0">
					<dim>1</dim>
					<dim>232</dim>
					<dim>24</dim>
					<dim>42</dim>
				</port>
				<port id="1">
					<dim>1</dim>
					<dim>232</dim>
					<dim>1</dim>
					<dim>1</dim>
				</port>
			</input>
			<output>
				<port id="2" precision="FP16">
					<dim>1</dim>
					<dim>232</dim>
					<dim>24</dim>
					<dim>42</dim>
				</port>
			</output>
		</layer>
		<layer id="208" name="relu4_2/dw" type="ReLU" version="opset1">
			<input>
				<port id="0">
					<dim>1</dim>
					<dim>232</dim>
					<dim>24</dim>
					<dim>42</dim>
				</port>
			</input>
			<output>
				<port id="1" precision="FP16">
					<dim>1</dim>
					<dim>232</dim>
					<dim>24</dim>
					<dim>42</dim>
				</port>
			</output>
		</layer>
		<layer id="209" name="19771981_const" type="Const" version="opset1">
			<data element_type="f16" offset="876" shape="" size="2"/>
			<output>
				<port id="1" precision="FP16"/>
			</output>
		</layer>
		<layer id="210" name="19781982_const" type="Const" version="opset1">
			<data element_type="f16" offset="129658" shape="" size="2"/>
			<output>
				<port id="1" precision="FP16"/>
			</output>
		</layer>
		<layer id="211" name="19791983_const" type="Const" version="opset1">
			<data element_type="f16" offset="876" shape="" size="2"/>
			<output>
				<port id="1" precision="FP16"/>
			</output>
		</layer>
		<layer id="212" name="19801984_const" type="Const" version="opset1">
			<data element_type="f16" offset="129658" shape="" size="2"/>
			<output>
				<port id="1" precision="FP16"/>
			</output>
		</layer>
		<layer id="213" name="conv4_2/sep/fq_input_0" type="FakeQuantize" version="opset1">
			<data levels="256"/>
			<input>
				<port id="0">
					<dim>1</dim>
					<dim>232</dim>
					<dim>24</dim>
					<dim>42</dim>
				</port>
				<port id="1"/>
				<port id="2"/>
				<port id="3"/>
				<port id="4"/>
			</input>
			<output>
				<port id="5" precision="FP16">
					<dim>1</dim>
					<dim>232</dim>
					<dim>24</dim>
					<dim>42</dim>
				</port>
			</output>
		</layer>
		<layer id="214" name="conv4_2/sep/fq_weights_1/Convert_to_float/Cast_06711_const" type="Const" version="opset1">
			<data element_type="u8" offset="129660" shape="448,232,1,1" size="103936"/>
			<output>
				<port id="1" precision="U8">
					<dim>448</dim>
					<dim>232</dim>
					<dim>1</dim>
					<dim>1</dim>
				</port>
			</output>
		</layer>
		<layer id="215" name="conv4_2/sep/fq_weights_1/Convert_to_float" type="Convert" version="opset1">
			<data destination_type="f16"/>
			<input>
				<port id="0">
					<dim>448</dim>
					<dim>232</dim>
					<dim>1</dim>
					<dim>1</dim>
				</port>
			</input>
			<output>
				<port id="1" precision="FP16">
					<dim>448</dim>
					<dim>232</dim>
					<dim>1</dim>
					<dim>1</dim>
				</port>
			</output>
		</layer>
		<layer id="216" name="conv4_2/sep/fq_weights_1/Copy/out_low5999_const" type="Const" version="opset1">
			<data element_type="f16" offset="876" shape="1" size="2"/>
			<output>
				<port id="1" precision="FP16">
					<dim>1</dim>
				</port>
			</output>
		</layer>
		<layer id="217" name="conv4_2/sep/fq_weights_1/Copy/out_high6000_const" type="Const" version="opset1">
			<data element_type="f16" offset="878" shape="1" size="2"/>
			<output>
				<port id="1" precision="FP16">
					<dim>1</dim>
				</port>
			</output>
		</layer>
		<layer id="218" name="19891993_const" type="Const" version="opset1">
			<data element_type="f16" offset="233596" shape="448,1,1,1" size="896"/>
			<output>
				<port id="1" precision="FP16">
					<dim>448</dim>
					<dim>1</dim>
					<dim>1</dim>
					<dim>1</dim>
				</port>
			</output>
		</layer>
		<layer id="219" name="19901994_const" type="Const" version="opset1">
			<data element_type="f16" offset="234492" shape="448,1,1,1" size="896"/>
			<output>
				<port id="1" precision="FP16">
					<dim>448</dim>
					<dim>1</dim>
					<dim>1</dim>
					<dim>1</dim>
				</port>
			</output>
		</layer>
		<layer id="220" name="conv4_2/sep/fq_weights_1" type="FakeQuantize" version="opset1">
			<data levels="255"/>
			<input>
				<port id="0">
					<dim>448</dim>
					<dim>232</dim>
					<dim>1</dim>
					<dim>1</dim>
				</port>
				<port id="1">
					<dim>1</dim>
				</port>
				<port id="2">
					<dim>1</dim>
				</port>
				<port id="3">
					<dim>448</dim>
					<dim>1</dim>
					<dim>1</dim>
					<dim>1</dim>
				</port>
				<port id="4">
					<dim>448</dim>
					<dim>1</dim>
					<dim>1</dim>
					<dim>1</dim>
				</port>
			</input>
			<output>
				<port id="5" precision="FP16">
					<dim>448</dim>
					<dim>232</dim>
					<dim>1</dim>
					<dim>1</dim>
				</port>
			</output>
		</layer>
		<layer id="221" name="conv4_2/sep" type="Convolution" version="opset1">
			<data dilations="1,1" output_padding="0,0" pads_begin="0,0" pads_end="0,0" strides="1,1"/>
			<input>
				<port id="0">
					<dim>1</dim>
					<dim>232</dim>
					<dim>24</dim>
					<dim>42</dim>
				</port>
				<port id="1">
					<dim>448</dim>
					<dim>232</dim>
					<dim>1</dim>
					<dim>1</dim>
				</port>
			</input>
			<output>
				<port id="2" precision="FP16">
					<dim>1</dim>
					<dim>448</dim>
					<dim>24</dim>
					<dim>42</dim>
				</port>
			</output>
		</layer>
		<layer id="222" name="data_add_107761078111139/EltwiseUnsqueeze11375_const568_const" type="Const" version="opset1">
			<data element_type="f16" offset="235388" shape="1,448,1,1" size="896"/>
			<output>
				<port id="1" precision="FP16">
					<dim>1</dim>
					<dim>448</dim>
					<dim>1</dim>
					<dim>1</dim>
				</port>
			</output>
		</layer>
		<layer id="223" name="conv4_2/sep/bn/variance/Fused_Add_" type="Add" version="opset1">
			<input>
				<port id="0">
					<dim>1</dim>
					<dim>448</dim>
					<dim>24</dim>
					<dim>42</dim>
				</port>
				<port id="1">
					<dim>1</dim>
					<dim>448</dim>
					<dim>1</dim>
					<dim>1</dim>
				</port>
			</input>
			<output>
				<port id="2" precision="FP16">
					<dim>1</dim>
					<dim>448</dim>
					<dim>24</dim>
					<dim>42</dim>
				</port>
			</output>
		</layer>
		<layer id="224" name="relu4_2/sep" type="ReLU" version="opset1">
			<input>
				<port id="0">
					<dim>1</dim>
					<dim>448</dim>
					<dim>24</dim>
					<dim>42</dim>
				</port>
			</input>
			<output>
				<port id="1" precision="FP16">
					<dim>1</dim>
					<dim>448</dim>
					<dim>24</dim>
					<dim>42</dim>
				</port>
			</output>
		</layer>
		<layer id="225" name="20372041_const" type="Const" version="opset1">
			<data element_type="f16" offset="236284" shape="1,448,1,1" size="896"/>
			<output>
				<port id="1" precision="FP16">
					<dim>1</dim>
					<dim>448</dim>
					<dim>1</dim>
					<dim>1</dim>
				</port>
			</output>
		</layer>
		<layer id="226" name="20382042_const" type="Const" version="opset1">
			<data element_type="f16" offset="237180" shape="1,448,1,1" size="896"/>
			<output>
				<port id="1" precision="FP16">
					<dim>1</dim>
					<dim>448</dim>
					<dim>1</dim>
					<dim>1</dim>
				</port>
			</output>
		</layer>
		<layer id="227" name="20392043_const" type="Const" version="opset1">
			<data element_type="f16" offset="236284" shape="1,448,1,1" size="896"/>
			<output>
				<port id="1" precision="FP16">
					<dim>1</dim>
					<dim>448</dim>
					<dim>1</dim>
					<dim>1</dim>
				</port>
			</output>
		</layer>
		<layer id="228" name="20402044_const" type="Const" version="opset1">
			<data element_type="f16" offset="237180" shape="1,448,1,1" size="896"/>
			<output>
				<port id="1" precision="FP16">
					<dim>1</dim>
					<dim>448</dim>
					<dim>1</dim>
					<dim>1</dim>
				</port>
			</output>
		</layer>
		<layer id="229" name="conv5_1/dw/fq_input_0" type="FakeQuantize" version="opset1">
			<data levels="256"/>
			<input>
				<port id="0">
					<dim>1</dim>
					<dim>448</dim>
					<dim>24</dim>
					<dim>42</dim>
				</port>
				<port id="1">
					<dim>1</dim>
					<dim>448</dim>
					<dim>1</dim>
					<dim>1</dim>
				</port>
				<port id="2">
					<dim>1</dim>
					<dim>448</dim>
					<dim>1</dim>
					<dim>1</dim>
				</port>
				<port id="3">
					<dim>1</dim>
					<dim>448</dim>
					<dim>1</dim>
					<dim>1</dim>
				</port>
				<port id="4">
					<dim>1</dim>
					<dim>448</dim>
					<dim>1</dim>
					<dim>1</dim>
				</port>
			</input>
			<output>
				<port id="5" precision="FP16">
					<dim>1</dim>
					<dim>448</dim>
					<dim>24</dim>
					<dim>42</dim>
				</port>
			</output>
		</layer>
		<layer id="230" name="conv5_1/dw/fq_weights_1/Convert_to_float/Cast_06849_const" type="Const" version="opset1">
			<data element_type="u8" offset="238076" shape="448,1,3,3" size="4032"/>
			<output>
				<port id="1" precision="U8">
					<dim>448</dim>
					<dim>1</dim>
					<dim>3</dim>
					<dim>3</dim>
				</port>
			</output>
		</layer>
		<layer id="231" name="conv5_1/dw/fq_weights_1/Convert_to_float" type="Convert" version="opset1">
			<data destination_type="f16"/>
			<input>
				<port id="0">
					<dim>448</dim>
					<dim>1</dim>
					<dim>3</dim>
					<dim>3</dim>
				</port>
			</input>
			<output>
				<port id="1" precision="FP16">
					<dim>448</dim>
					<dim>1</dim>
					<dim>3</dim>
					<dim>3</dim>
				</port>
			</output>
		</layer>
		<layer id="232" name="conv5_1/dw/fq_weights_1/Copy/out_low5935_const" type="Const" version="opset1">
			<data element_type="f16" offset="876" shape="1" size="2"/>
			<output>
				<port id="1" precision="FP16">
					<dim>1</dim>
				</port>
			</output>
		</layer>
		<layer id="233" name="conv5_1/dw/fq_weights_1/Copy/out_high5936_const" type="Const" version="opset1">
			<data element_type="f16" offset="878" shape="1" size="2"/>
			<output>
				<port id="1" precision="FP16">
					<dim>1</dim>
				</port>
			</output>
		</layer>
		<layer id="234" name="20492053_const" type="Const" version="opset1">
			<data element_type="f16" offset="242108" shape="448,1,1,1" size="896"/>
			<output>
				<port id="1" precision="FP16">
					<dim>448</dim>
					<dim>1</dim>
					<dim>1</dim>
					<dim>1</dim>
				</port>
			</output>
		</layer>
		<layer id="235" name="20502054_const" type="Const" version="opset1">
			<data element_type="f16" offset="243004" shape="448,1,1,1" size="896"/>
			<output>
				<port id="1" precision="FP16">
					<dim>448</dim>
					<dim>1</dim>
					<dim>1</dim>
					<dim>1</dim>
				</port>
			</output>
		</layer>
		<layer id="236" name="conv5_1/dw/fq_weights_1" type="FakeQuantize" version="opset1">
			<data levels="255"/>
			<input>
				<port id="0">
					<dim>448</dim>
					<dim>1</dim>
					<dim>3</dim>
					<dim>3</dim>
				</port>
				<port id="1">
					<dim>1</dim>
				</port>
				<port id="2">
					<dim>1</dim>
				</port>
				<port id="3">
					<dim>448</dim>
					<dim>1</dim>
					<dim>1</dim>
					<dim>1</dim>
				</port>
				<port id="4">
					<dim>448</dim>
					<dim>1</dim>
					<dim>1</dim>
					<dim>1</dim>
				</port>
			</input>
			<output>
				<port id="5" precision="FP16">
					<dim>448</dim>
					<dim>1</dim>
					<dim>3</dim>
					<dim>3</dim>
				</port>
			</output>
		</layer>
		<layer id="237" name="7570/value7572_const" type="Const" version="opset1">
			<data element_type="i64" offset="243900" shape="5" size="40"/>
			<output>
				<port id="1" precision="I64">
					<dim>5</dim>
				</port>
			</output>
		</layer>
		<layer id="238" name="7570" type="Reshape" version="opset1">
			<data special_zero="True"/>
			<input>
				<port id="0">
					<dim>448</dim>
					<dim>1</dim>
					<dim>3</dim>
					<dim>3</dim>
				</port>
				<port id="1">
					<dim>5</dim>
				</port>
			</input>
			<output>
				<port id="2" precision="FP16">
					<dim>448</dim>
					<dim>1</dim>
					<dim>1</dim>
					<dim>3</dim>
					<dim>3</dim>
				</port>
			</output>
		</layer>
		<layer id="239" name="conv5_1/dw" type="GroupConvolution" version="opset1">
			<data dilations="1,1" output_padding="0,0" pads_begin="1,1" pads_end="1,1" strides="1,1"/>
			<input>
				<port id="0">
					<dim>1</dim>
					<dim>448</dim>
					<dim>24</dim>
					<dim>42</dim>
				</port>
				<port id="1">
					<dim>448</dim>
					<dim>1</dim>
					<dim>1</dim>
					<dim>3</dim>
					<dim>3</dim>
				</port>
			</input>
			<output>
				<port id="2" precision="FP16">
					<dim>1</dim>
					<dim>448</dim>
					<dim>24</dim>
					<dim>42</dim>
				</port>
			</output>
		</layer>
		<layer id="240" name="data_add_107841078911141/EltwiseUnsqueeze11383_const573_const" type="Const" version="opset1">
			<data element_type="f16" offset="243940" shape="1,448,1,1" size="896"/>
			<output>
				<port id="1" precision="FP16">
					<dim>1</dim>
					<dim>448</dim>
					<dim>1</dim>
					<dim>1</dim>
				</port>
			</output>
		</layer>
		<layer id="241" name="conv5_1/dw/bn/variance/Fused_Add_" type="Add" version="opset1">
			<input>
				<port id="0">
					<dim>1</dim>
					<dim>448</dim>
					<dim>24</dim>
					<dim>42</dim>
				</port>
				<port id="1">
					<dim>1</dim>
					<dim>448</dim>
					<dim>1</dim>
					<dim>1</dim>
				</port>
			</input>
			<output>
				<port id="2" precision="FP16">
					<dim>1</dim>
					<dim>448</dim>
					<dim>24</dim>
					<dim>42</dim>
				</port>
			</output>
		</layer>
		<layer id="242" name="relu5_1/dw" type="ReLU" version="opset1">
			<input>
				<port id="0">
					<dim>1</dim>
					<dim>448</dim>
					<dim>24</dim>
					<dim>42</dim>
				</port>
			</input>
			<output>
				<port id="1" precision="FP16">
					<dim>1</dim>
					<dim>448</dim>
					<dim>24</dim>
					<dim>42</dim>
				</port>
			</output>
		</layer>
		<layer id="243" name="28172821_const" type="Const" version="opset1">
			<data element_type="f16" offset="876" shape="" size="2"/>
			<output>
				<port id="1" precision="FP16"/>
			</output>
		</layer>
		<layer id="244" name="28182822_const" type="Const" version="opset1">
			<data element_type="f16" offset="244836" shape="" size="2"/>
			<output>
				<port id="1" precision="FP16"/>
			</output>
		</layer>
		<layer id="245" name="28192823_const" type="Const" version="opset1">
			<data element_type="f16" offset="876" shape="" size="2"/>
			<output>
				<port id="1" precision="FP16"/>
			</output>
		</layer>
		<layer id="246" name="28202824_const" type="Const" version="opset1">
			<data element_type="f16" offset="244836" shape="" size="2"/>
			<output>
				<port id="1" precision="FP16"/>
			</output>
		</layer>
		<layer id="247" name="conv5_1/sep/fq_input_0" type="FakeQuantize" version="opset1">
			<data levels="256"/>
			<input>
				<port id="0">
					<dim>1</dim>
					<dim>448</dim>
					<dim>24</dim>
					<dim>42</dim>
				</port>
				<port id="1"/>
				<port id="2"/>
				<port id="3"/>
				<port id="4"/>
			</input>
			<output>
				<port id="5" precision="FP16">
					<dim>1</dim>
					<dim>448</dim>
					<dim>24</dim>
					<dim>42</dim>
				</port>
			</output>
		</layer>
		<layer id="248" name="conv5_1/sep/fq_weights_1/Convert_to_float/Cast_06811_const" type="Const" version="opset1">
			<data element_type="u8" offset="244838" shape="400,448,1,1" size="179200"/>
			<output>
				<port id="1" precision="U8">
					<dim>400</dim>
					<dim>448</dim>
					<dim>1</dim>
					<dim>1</dim>
				</port>
			</output>
		</layer>
		<layer id="249" name="conv5_1/sep/fq_weights_1/Convert_to_float" type="Convert" version="opset1">
			<data destination_type="f16"/>
			<input>
				<port id="0">
					<dim>400</dim>
					<dim>448</dim>
					<dim>1</dim>
					<dim>1</dim>
				</port>
			</input>
			<output>
				<port id="1" precision="FP16">
					<dim>400</dim>
					<dim>448</dim>
					<dim>1</dim>
					<dim>1</dim>
				</port>
			</output>
		</layer>
		<layer id="250" name="conv5_1/sep/fq_weights_1/Copy/out_low5623_const" type="Const" version="opset1">
			<data element_type="f16" offset="876" shape="1" size="2"/>
			<output>
				<port id="1" precision="FP16">
					<dim>1</dim>
				</port>
			</output>
		</layer>
		<layer id="251" name="conv5_1/sep/fq_weights_1/Copy/out_high5624_const" type="Const" version="opset1">
			<data element_type="f16" offset="878" shape="1" size="2"/>
			<output>
				<port id="1" precision="FP16">
					<dim>1</dim>
				</port>
			</output>
		</layer>
		<layer id="252" name="28292833_const" type="Const" version="opset1">
			<data element_type="f16" offset="424038" shape="400,1,1,1" size="800"/>
			<output>
				<port id="1" precision="FP16">
					<dim>400</dim>
					<dim>1</dim>
					<dim>1</dim>
					<dim>1</dim>
				</port>
			</output>
		</layer>
		<layer id="253" name="28302834_const" type="Const" version="opset1">
			<data element_type="f16" offset="424838" shape="400,1,1,1" size="800"/>
			<output>
				<port id="1" precision="FP16">
					<dim>400</dim>
					<dim>1</dim>
					<dim>1</dim>
					<dim>1</dim>
				</port>
			</output>
		</layer>
		<layer id="254" name="conv5_1/sep/fq_weights_1" type="FakeQuantize" version="opset1">
			<data levels="255"/>
			<input>
				<port id="0">
					<dim>400</dim>
					<dim>448</dim>
					<dim>1</dim>
					<dim>1</dim>
				</port>
				<port id="1">
					<dim>1</dim>
				</port>
				<port id="2">
					<dim>1</dim>
				</port>
				<port id="3">
					<dim>400</dim>
					<dim>1</dim>
					<dim>1</dim>
					<dim>1</dim>
				</port>
				<port id="4">
					<dim>400</dim>
					<dim>1</dim>
					<dim>1</dim>
					<dim>1</dim>
				</port>
			</input>
			<output>
				<port id="5" precision="FP16">
					<dim>400</dim>
					<dim>448</dim>
					<dim>1</dim>
					<dim>1</dim>
				</port>
			</output>
		</layer>
		<layer id="255" name="conv5_1/sep" type="Convolution" version="opset1">
			<data dilations="1,1" output_padding="0,0" pads_begin="0,0" pads_end="0,0" strides="1,1"/>
			<input>
				<port id="0">
					<dim>1</dim>
					<dim>448</dim>
					<dim>24</dim>
					<dim>42</dim>
				</port>
				<port id="1">
					<dim>400</dim>
					<dim>448</dim>
					<dim>1</dim>
					<dim>1</dim>
				</port>
			</input>
			<output>
				<port id="2" precision="FP16">
					<dim>1</dim>
					<dim>400</dim>
					<dim>24</dim>
					<dim>42</dim>
				</port>
			</output>
		</layer>
		<layer id="256" name="data_add_107921079711143/EltwiseUnsqueeze11391_const578_const" type="Const" version="opset1">
			<data element_type="f16" offset="425638" shape="1,400,1,1" size="800"/>
			<output>
				<port id="1" precision="FP16">
					<dim>1</dim>
					<dim>400</dim>
					<dim>1</dim>
					<dim>1</dim>
				</port>
			</output>
		</layer>
		<layer id="257" name="conv5_1/sep/bn/variance/Fused_Add_" type="Add" version="opset1">
			<input>
				<port id="0">
					<dim>1</dim>
					<dim>400</dim>
					<dim>24</dim>
					<dim>42</dim>
				</port>
				<port id="1">
					<dim>1</dim>
					<dim>400</dim>
					<dim>1</dim>
					<dim>1</dim>
				</port>
			</input>
			<output>
				<port id="2" precision="FP16">
					<dim>1</dim>
					<dim>400</dim>
					<dim>24</dim>
					<dim>42</dim>
				</port>
			</output>
		</layer>
		<layer id="258" name="relu5_1/sep" type="ReLU" version="opset1">
			<input>
				<port id="0">
					<dim>1</dim>
					<dim>400</dim>
					<dim>24</dim>
					<dim>42</dim>
				</port>
			</input>
			<output>
				<port id="1" precision="FP16">
					<dim>1</dim>
					<dim>400</dim>
					<dim>24</dim>
					<dim>42</dim>
				</port>
			</output>
		</layer>
		<layer id="259" name="18771881_const" type="Const" version="opset1">
			<data element_type="f16" offset="426438" shape="1,400,1,1" size="800"/>
			<output>
				<port id="1" precision="FP16">
					<dim>1</dim>
					<dim>400</dim>
					<dim>1</dim>
					<dim>1</dim>
				</port>
			</output>
		</layer>
		<layer id="260" name="18781882_const" type="Const" version="opset1">
			<data element_type="f16" offset="427238" shape="1,400,1,1" size="800"/>
			<output>
				<port id="1" precision="FP16">
					<dim>1</dim>
					<dim>400</dim>
					<dim>1</dim>
					<dim>1</dim>
				</port>
			</output>
		</layer>
		<layer id="261" name="18791883_const" type="Const" version="opset1">
			<data element_type="f16" offset="426438" shape="1,400,1,1" size="800"/>
			<output>
				<port id="1" precision="FP16">
					<dim>1</dim>
					<dim>400</dim>
					<dim>1</dim>
					<dim>1</dim>
				</port>
			</output>
		</layer>
		<layer id="262" name="18801884_const" type="Const" version="opset1">
			<data element_type="f16" offset="427238" shape="1,400,1,1" size="800"/>
			<output>
				<port id="1" precision="FP16">
					<dim>1</dim>
					<dim>400</dim>
					<dim>1</dim>
					<dim>1</dim>
				</port>
			</output>
		</layer>
		<layer id="263" name="conv5_2/dw/fq_input_0" type="FakeQuantize" version="opset1">
			<data levels="256"/>
			<input>
				<port id="0">
					<dim>1</dim>
					<dim>400</dim>
					<dim>24</dim>
					<dim>42</dim>
				</port>
				<port id="1">
					<dim>1</dim>
					<dim>400</dim>
					<dim>1</dim>
					<dim>1</dim>
				</port>
				<port id="2">
					<dim>1</dim>
					<dim>400</dim>
					<dim>1</dim>
					<dim>1</dim>
				</port>
				<port id="3">
					<dim>1</dim>
					<dim>400</dim>
					<dim>1</dim>
					<dim>1</dim>
				</port>
				<port id="4">
					<dim>1</dim>
					<dim>400</dim>
					<dim>1</dim>
					<dim>1</dim>
				</port>
			</input>
			<output>
				<port id="5" precision="FP16">
					<dim>1</dim>
					<dim>400</dim>
					<dim>24</dim>
					<dim>42</dim>
				</port>
			</output>
		</layer>
		<layer id="264" name="conv5_2/dw/fq_weights_1/Convert_to_float/Cast_06699_const" type="Const" version="opset1">
			<data element_type="u8" offset="428038" shape="400,1,3,3" size="3600"/>
			<output>
				<port id="1" precision="U8">
					<dim>400</dim>
					<dim>1</dim>
					<dim>3</dim>
					<dim>3</dim>
				</port>
			</output>
		</layer>
		<layer id="265" name="conv5_2/dw/fq_weights_1/Convert_to_float" type="Convert" version="opset1">
			<data destination_type="f16"/>
			<input>
				<port id="0">
					<dim>400</dim>
					<dim>1</dim>
					<dim>3</dim>
					<dim>3</dim>
				</port>
			</input>
			<output>
				<port id="1" precision="FP16">
					<dim>400</dim>
					<dim>1</dim>
					<dim>3</dim>
					<dim>3</dim>
				</port>
			</output>
		</layer>
		<layer id="266" name="conv5_2/dw/fq_weights_1/Copy/out_low5983_const" type="Const" version="opset1">
			<data element_type="f16" offset="876" shape="1" size="2"/>
			<output>
				<port id="1" precision="FP16">
					<dim>1</dim>
				</port>
			</output>
		</layer>
		<layer id="267" name="conv5_2/dw/fq_weights_1/Copy/out_high5984_const" type="Const" version="opset1">
			<data element_type="f16" offset="878" shape="1" size="2"/>
			<output>
				<port id="1" precision="FP16">
					<dim>1</dim>
				</port>
			</output>
		</layer>
		<layer id="268" name="18891893_const" type="Const" version="opset1">
			<data element_type="f16" offset="431638" shape="400,1,1,1" size="800"/>
			<output>
				<port id="1" precision="FP16">
					<dim>400</dim>
					<dim>1</dim>
					<dim>1</dim>
					<dim>1</dim>
				</port>
			</output>
		</layer>
		<layer id="269" name="18901894_const" type="Const" version="opset1">
			<data element_type="f16" offset="432438" shape="400,1,1,1" size="800"/>
			<output>
				<port id="1" precision="FP16">
					<dim>400</dim>
					<dim>1</dim>
					<dim>1</dim>
					<dim>1</dim>
				</port>
			</output>
		</layer>
		<layer id="270" name="conv5_2/dw/fq_weights_1" type="FakeQuantize" version="opset1">
			<data levels="255"/>
			<input>
				<port id="0">
					<dim>400</dim>
					<dim>1</dim>
					<dim>3</dim>
					<dim>3</dim>
				</port>
				<port id="1">
					<dim>1</dim>
				</port>
				<port id="2">
					<dim>1</dim>
				</port>
				<port id="3">
					<dim>400</dim>
					<dim>1</dim>
					<dim>1</dim>
					<dim>1</dim>
				</port>
				<port id="4">
					<dim>400</dim>
					<dim>1</dim>
					<dim>1</dim>
					<dim>1</dim>
				</port>
			</input>
			<output>
				<port id="5" precision="FP16">
					<dim>400</dim>
					<dim>1</dim>
					<dim>3</dim>
					<dim>3</dim>
				</port>
			</output>
		</layer>
		<layer id="271" name="7562/value7564_const" type="Const" version="opset1">
			<data element_type="i64" offset="433238" shape="5" size="40"/>
			<output>
				<port id="1" precision="I64">
					<dim>5</dim>
				</port>
			</output>
		</layer>
		<layer id="272" name="7562" type="Reshape" version="opset1">
			<data special_zero="True"/>
			<input>
				<port id="0">
					<dim>400</dim>
					<dim>1</dim>
					<dim>3</dim>
					<dim>3</dim>
				</port>
				<port id="1">
					<dim>5</dim>
				</port>
			</input>
			<output>
				<port id="2" precision="FP16">
					<dim>400</dim>
					<dim>1</dim>
					<dim>1</dim>
					<dim>3</dim>
					<dim>3</dim>
				</port>
			</output>
		</layer>
		<layer id="273" name="conv5_2/dw" type="GroupConvolution" version="opset1">
			<data dilations="1,1" output_padding="0,0" pads_begin="1,1" pads_end="1,1" strides="1,1"/>
			<input>
				<port id="0">
					<dim>1</dim>
					<dim>400</dim>
					<dim>24</dim>
					<dim>42</dim>
				</port>
				<port id="1">
					<dim>400</dim>
					<dim>1</dim>
					<dim>1</dim>
					<dim>3</dim>
					<dim>3</dim>
				</port>
			</input>
			<output>
				<port id="2" precision="FP16">
					<dim>1</dim>
					<dim>400</dim>
					<dim>24</dim>
					<dim>42</dim>
				</port>
			</output>
		</layer>
		<layer id="274" name="data_add_108001080511145/EltwiseUnsqueeze11399_const583_const" type="Const" version="opset1">
			<data element_type="f16" offset="433278" shape="1,400,1,1" size="800"/>
			<output>
				<port id="1" precision="FP16">
					<dim>1</dim>
					<dim>400</dim>
					<dim>1</dim>
					<dim>1</dim>
				</port>
			</output>
		</layer>
		<layer id="275" name="conv5_2/dw/bn/variance/Fused_Add_" type="Add" version="opset1">
			<input>
				<port id="0">
					<dim>1</dim>
					<dim>400</dim>
					<dim>24</dim>
					<dim>42</dim>
				</port>
				<port id="1">
					<dim>1</dim>
					<dim>400</dim>
					<dim>1</dim>
					<dim>1</dim>
				</port>
			</input>
			<output>
				<port id="2" precision="FP16">
					<dim>1</dim>
					<dim>400</dim>
					<dim>24</dim>
					<dim>42</dim>
				</port>
			</output>
		</layer>
		<layer id="276" name="relu5_2/dw" type="ReLU" version="opset1">
			<input>
				<port id="0">
					<dim>1</dim>
					<dim>400</dim>
					<dim>24</dim>
					<dim>42</dim>
				</port>
			</input>
			<output>
				<port id="1" precision="FP16">
					<dim>1</dim>
					<dim>400</dim>
					<dim>24</dim>
					<dim>42</dim>
				</port>
			</output>
		</layer>
		<layer id="277" name="22372241_const" type="Const" version="opset1">
			<data element_type="f16" offset="876" shape="" size="2"/>
			<output>
				<port id="1" precision="FP16"/>
			</output>
		</layer>
		<layer id="278" name="22382242_const" type="Const" version="opset1">
			<data element_type="f16" offset="434078" shape="" size="2"/>
			<output>
				<port id="1" precision="FP16"/>
			</output>
		</layer>
		<layer id="279" name="22392243_const" type="Const" version="opset1">
			<data element_type="f16" offset="876" shape="" size="2"/>
			<output>
				<port id="1" precision="FP16"/>
			</output>
		</layer>
		<layer id="280" name="22402244_const" type="Const" version="opset1">
			<data element_type="f16" offset="434078" shape="" size="2"/>
			<output>
				<port id="1" precision="FP16"/>
			</output>
		</layer>
		<layer id="281" name="conv5_2/sep/fq_input_0" type="FakeQuantize" version="opset1">
			<data levels="256"/>
			<input>
				<port id="0">
					<dim>1</dim>
					<dim>400</dim>
					<dim>24</dim>
					<dim>42</dim>
				</port>
				<port id="1"/>
				<port id="2"/>
				<port id="3"/>
				<port id="4"/>
			</input>
			<output>
				<port id="5" precision="FP16">
					<dim>1</dim>
					<dim>400</dim>
					<dim>24</dim>
					<dim>42</dim>
				</port>
			</output>
		</layer>
		<layer id="282" name="conv5_2/sep/fq_weights_1/Convert_to_float/Cast_06677_const" type="Const" version="opset1">
			<data element_type="u8" offset="434080" shape="392,400,1,1" size="156800"/>
			<output>
				<port id="1" precision="U8">
					<dim>392</dim>
					<dim>400</dim>
					<dim>1</dim>
					<dim>1</dim>
				</port>
			</output>
		</layer>
		<layer id="283" name="conv5_2/sep/fq_weights_1/Convert_to_float" type="Convert" version="opset1">
			<data destination_type="f16"/>
			<input>
				<port id="0">
					<dim>392</dim>
					<dim>400</dim>
					<dim>1</dim>
					<dim>1</dim>
				</port>
			</input>
			<output>
				<port id="1" precision="FP16">
					<dim>392</dim>
					<dim>400</dim>
					<dim>1</dim>
					<dim>1</dim>
				</port>
			</output>
		</layer>
		<layer id="284" name="conv5_2/sep/fq_weights_1/Copy/out_low5823_const" type="Const" version="opset1">
			<data element_type="f16" offset="876" shape="1" size="2"/>
			<output>
				<port id="1" precision="FP16">
					<dim>1</dim>
				</port>
			</output>
		</layer>
		<layer id="285" name="conv5_2/sep/fq_weights_1/Copy/out_high5824_const" type="Const" version="opset1">
			<data element_type="f16" offset="878" shape="1" size="2"/>
			<output>
				<port id="1" precision="FP16">
					<dim>1</dim>
				</port>
			</output>
		</layer>
		<layer id="286" name="22492253_const" type="Const" version="opset1">
			<data element_type="f16" offset="590880" shape="392,1,1,1" size="784"/>
			<output>
				<port id="1" precision="FP16">
					<dim>392</dim>
					<dim>1</dim>
					<dim>1</dim>
					<dim>1</dim>
				</port>
			</output>
		</layer>
		<layer id="287" name="22502254_const" type="Const" version="opset1">
			<data element_type="f16" offset="591664" shape="392,1,1,1" size="784"/>
			<output>
				<port id="1" precision="FP16">
					<dim>392</dim>
					<dim>1</dim>
					<dim>1</dim>
					<dim>1</dim>
				</port>
			</output>
		</layer>
		<layer id="288" name="conv5_2/sep/fq_weights_1" type="FakeQuantize" version="opset1">
			<data levels="255"/>
			<input>
				<port id="0">
					<dim>392</dim>
					<dim>400</dim>
					<dim>1</dim>
					<dim>1</dim>
				</port>
				<port id="1">
					<dim>1</dim>
				</port>
				<port id="2">
					<dim>1</dim>
				</port>
				<port id="3">
					<dim>392</dim>
					<dim>1</dim>
					<dim>1</dim>
					<dim>1</dim>
				</port>
				<port id="4">
					<dim>392</dim>
					<dim>1</dim>
					<dim>1</dim>
					<dim>1</dim>
				</port>
			</input>
			<output>
				<port id="5" precision="FP16">
					<dim>392</dim>
					<dim>400</dim>
					<dim>1</dim>
					<dim>1</dim>
				</port>
			</output>
		</layer>
		<layer id="289" name="conv5_2/sep" type="Convolution" version="opset1">
			<data dilations="1,1" output_padding="0,0" pads_begin="0,0" pads_end="0,0" strides="1,1"/>
			<input>
				<port id="0">
					<dim>1</dim>
					<dim>400</dim>
					<dim>24</dim>
					<dim>42</dim>
				</port>
				<port id="1">
					<dim>392</dim>
					<dim>400</dim>
					<dim>1</dim>
					<dim>1</dim>
				</port>
			</input>
			<output>
				<port id="2" precision="FP16">
					<dim>1</dim>
					<dim>392</dim>
					<dim>24</dim>
					<dim>42</dim>
				</port>
			</output>
		</layer>
		<layer id="290" name="data_add_108081081311147/EltwiseUnsqueeze11407_const588_const" type="Const" version="opset1">
			<data element_type="f16" offset="592448" shape="1,392,1,1" size="784"/>
			<output>
				<port id="1" precision="FP16">
					<dim>1</dim>
					<dim>392</dim>
					<dim>1</dim>
					<dim>1</dim>
				</port>
			</output>
		</layer>
		<layer id="291" name="conv5_2/sep/bn/variance/Fused_Add_" type="Add" version="opset1">
			<input>
				<port id="0">
					<dim>1</dim>
					<dim>392</dim>
					<dim>24</dim>
					<dim>42</dim>
				</port>
				<port id="1">
					<dim>1</dim>
					<dim>392</dim>
					<dim>1</dim>
					<dim>1</dim>
				</port>
			</input>
			<output>
				<port id="2" precision="FP16">
					<dim>1</dim>
					<dim>392</dim>
					<dim>24</dim>
					<dim>42</dim>
				</port>
			</output>
		</layer>
		<layer id="292" name="relu5_2/sep" type="ReLU" version="opset1">
			<input>
				<port id="0">
					<dim>1</dim>
					<dim>392</dim>
					<dim>24</dim>
					<dim>42</dim>
				</port>
			</input>
			<output>
				<port id="1" precision="FP16">
					<dim>1</dim>
					<dim>392</dim>
					<dim>24</dim>
					<dim>42</dim>
				</port>
			</output>
		</layer>
		<layer id="293" name="17971801_const" type="Const" version="opset1">
			<data element_type="f16" offset="593232" shape="1,392,1,1" size="784"/>
			<output>
				<port id="1" precision="FP16">
					<dim>1</dim>
					<dim>392</dim>
					<dim>1</dim>
					<dim>1</dim>
				</port>
			</output>
		</layer>
		<layer id="294" name="17981802_const" type="Const" version="opset1">
			<data element_type="f16" offset="594016" shape="1,392,1,1" size="784"/>
			<output>
				<port id="1" precision="FP16">
					<dim>1</dim>
					<dim>392</dim>
					<dim>1</dim>
					<dim>1</dim>
				</port>
			</output>
		</layer>
		<layer id="295" name="17991803_const" type="Const" version="opset1">
			<data element_type="f16" offset="593232" shape="1,392,1,1" size="784"/>
			<output>
				<port id="1" precision="FP16">
					<dim>1</dim>
					<dim>392</dim>
					<dim>1</dim>
					<dim>1</dim>
				</port>
			</output>
		</layer>
		<layer id="296" name="18001804_const" type="Const" version="opset1">
			<data element_type="f16" offset="594016" shape="1,392,1,1" size="784"/>
			<output>
				<port id="1" precision="FP16">
					<dim>1</dim>
					<dim>392</dim>
					<dim>1</dim>
					<dim>1</dim>
				</port>
			</output>
		</layer>
		<layer id="297" name="conv5_3/dw/fq_input_0" type="FakeQuantize" version="opset1">
			<data levels="256"/>
			<input>
				<port id="0">
					<dim>1</dim>
					<dim>392</dim>
					<dim>24</dim>
					<dim>42</dim>
				</port>
				<port id="1">
					<dim>1</dim>
					<dim>392</dim>
					<dim>1</dim>
					<dim>1</dim>
				</port>
				<port id="2">
					<dim>1</dim>
					<dim>392</dim>
					<dim>1</dim>
					<dim>1</dim>
				</port>
				<port id="3">
					<dim>1</dim>
					<dim>392</dim>
					<dim>1</dim>
					<dim>1</dim>
				</port>
				<port id="4">
					<dim>1</dim>
					<dim>392</dim>
					<dim>1</dim>
					<dim>1</dim>
				</port>
			</input>
			<output>
				<port id="5" precision="FP16">
					<dim>1</dim>
					<dim>392</dim>
					<dim>24</dim>
					<dim>42</dim>
				</port>
			</output>
		</layer>
		<layer id="298" name="conv5_3/dw/fq_weights_1/Convert_to_float/Cast_06679_const" type="Const" version="opset1">
			<data element_type="u8" offset="594800" shape="392,1,3,3" size="3528"/>
			<output>
				<port id="1" precision="U8">
					<dim>392</dim>
					<dim>1</dim>
					<dim>3</dim>
					<dim>3</dim>
				</port>
			</output>
		</layer>
		<layer id="299" name="conv5_3/dw/fq_weights_1/Convert_to_float" type="Convert" version="opset1">
			<data destination_type="f16"/>
			<input>
				<port id="0">
					<dim>392</dim>
					<dim>1</dim>
					<dim>3</dim>
					<dim>3</dim>
				</port>
			</input>
			<output>
				<port id="1" precision="FP16">
					<dim>392</dim>
					<dim>1</dim>
					<dim>3</dim>
					<dim>3</dim>
				</port>
			</output>
		</layer>
		<layer id="300" name="conv5_3/dw/fq_weights_1/Copy/out_low5927_const" type="Const" version="opset1">
			<data element_type="f16" offset="876" shape="1" size="2"/>
			<output>
				<port id="1" precision="FP16">
					<dim>1</dim>
				</port>
			</output>
		</layer>
		<layer id="301" name="conv5_3/dw/fq_weights_1/Copy/out_high5928_const" type="Const" version="opset1">
			<data element_type="f16" offset="878" shape="1" size="2"/>
			<output>
				<port id="1" precision="FP16">
					<dim>1</dim>
				</port>
			</output>
		</layer>
		<layer id="302" name="18091813_const" type="Const" version="opset1">
			<data element_type="f16" offset="598328" shape="392,1,1,1" size="784"/>
			<output>
				<port id="1" precision="FP16">
					<dim>392</dim>
					<dim>1</dim>
					<dim>1</dim>
					<dim>1</dim>
				</port>
			</output>
		</layer>
		<layer id="303" name="18101814_const" type="Const" version="opset1">
			<data element_type="f16" offset="599112" shape="392,1,1,1" size="784"/>
			<output>
				<port id="1" precision="FP16">
					<dim>392</dim>
					<dim>1</dim>
					<dim>1</dim>
					<dim>1</dim>
				</port>
			</output>
		</layer>
		<layer id="304" name="conv5_3/dw/fq_weights_1" type="FakeQuantize" version="opset1">
			<data levels="255"/>
			<input>
				<port id="0">
					<dim>392</dim>
					<dim>1</dim>
					<dim>3</dim>
					<dim>3</dim>
				</port>
				<port id="1">
					<dim>1</dim>
				</port>
				<port id="2">
					<dim>1</dim>
				</port>
				<port id="3">
					<dim>392</dim>
					<dim>1</dim>
					<dim>1</dim>
					<dim>1</dim>
				</port>
				<port id="4">
					<dim>392</dim>
					<dim>1</dim>
					<dim>1</dim>
					<dim>1</dim>
				</port>
			</input>
			<output>
				<port id="5" precision="FP16">
					<dim>392</dim>
					<dim>1</dim>
					<dim>3</dim>
					<dim>3</dim>
				</port>
			</output>
		</layer>
		<layer id="305" name="7546/value7548_const" type="Const" version="opset1">
			<data element_type="i64" offset="599896" shape="5" size="40"/>
			<output>
				<port id="1" precision="I64">
					<dim>5</dim>
				</port>
			</output>
		</layer>
		<layer id="306" name="7546" type="Reshape" version="opset1">
			<data special_zero="True"/>
			<input>
				<port id="0">
					<dim>392</dim>
					<dim>1</dim>
					<dim>3</dim>
					<dim>3</dim>
				</port>
				<port id="1">
					<dim>5</dim>
				</port>
			</input>
			<output>
				<port id="2" precision="FP16">
					<dim>392</dim>
					<dim>1</dim>
					<dim>1</dim>
					<dim>3</dim>
					<dim>3</dim>
				</port>
			</output>
		</layer>
		<layer id="307" name="conv5_3/dw" type="GroupConvolution" version="opset1">
			<data dilations="1,1" output_padding="0,0" pads_begin="1,1" pads_end="1,1" strides="1,1"/>
			<input>
				<port id="0">
					<dim>1</dim>
					<dim>392</dim>
					<dim>24</dim>
					<dim>42</dim>
				</port>
				<port id="1">
					<dim>392</dim>
					<dim>1</dim>
					<dim>1</dim>
					<dim>3</dim>
					<dim>3</dim>
				</port>
			</input>
			<output>
				<port id="2" precision="FP16">
					<dim>1</dim>
					<dim>392</dim>
					<dim>24</dim>
					<dim>42</dim>
				</port>
			</output>
		</layer>
		<layer id="308" name="data_add_108161082111149/EltwiseUnsqueeze11415_const593_const" type="Const" version="opset1">
			<data element_type="f16" offset="599936" shape="1,392,1,1" size="784"/>
			<output>
				<port id="1" precision="FP16">
					<dim>1</dim>
					<dim>392</dim>
					<dim>1</dim>
					<dim>1</dim>
				</port>
			</output>
		</layer>
		<layer id="309" name="conv5_3/dw/bn/variance/Fused_Add_" type="Add" version="opset1">
			<input>
				<port id="0">
					<dim>1</dim>
					<dim>392</dim>
					<dim>24</dim>
					<dim>42</dim>
				</port>
				<port id="1">
					<dim>1</dim>
					<dim>392</dim>
					<dim>1</dim>
					<dim>1</dim>
				</port>
			</input>
			<output>
				<port id="2" precision="FP16">
					<dim>1</dim>
					<dim>392</dim>
					<dim>24</dim>
					<dim>42</dim>
				</port>
			</output>
		</layer>
		<layer id="310" name="relu5_3/dw" type="ReLU" version="opset1">
			<input>
				<port id="0">
					<dim>1</dim>
					<dim>392</dim>
					<dim>24</dim>
					<dim>42</dim>
				</port>
			</input>
			<output>
				<port id="1" precision="FP16">
					<dim>1</dim>
					<dim>392</dim>
					<dim>24</dim>
					<dim>42</dim>
				</port>
			</output>
		</layer>
		<layer id="311" name="28572861_const" type="Const" version="opset1">
			<data element_type="f16" offset="876" shape="" size="2"/>
			<output>
				<port id="1" precision="FP16"/>
			</output>
		</layer>
		<layer id="312" name="28582862_const" type="Const" version="opset1">
			<data element_type="f16" offset="600720" shape="" size="2"/>
			<output>
				<port id="1" precision="FP16"/>
			</output>
		</layer>
		<layer id="313" name="28592863_const" type="Const" version="opset1">
			<data element_type="f16" offset="876" shape="" size="2"/>
			<output>
				<port id="1" precision="FP16"/>
			</output>
		</layer>
		<layer id="314" name="28602864_const" type="Const" version="opset1">
			<data element_type="f16" offset="600720" shape="" size="2"/>
			<output>
				<port id="1" precision="FP16"/>
			</output>
		</layer>
		<layer id="315" name="conv5_3/sep/fq_input_0" type="FakeQuantize" version="opset1">
			<data levels="256"/>
			<input>
				<port id="0">
					<dim>1</dim>
					<dim>392</dim>
					<dim>24</dim>
					<dim>42</dim>
				</port>
				<port id="1"/>
				<port id="2"/>
				<port id="3"/>
				<port id="4"/>
			</input>
			<output>
				<port id="5" precision="FP16">
					<dim>1</dim>
					<dim>392</dim>
					<dim>24</dim>
					<dim>42</dim>
				</port>
			</output>
		</layer>
		<layer id="316" name="conv5_3/sep/fq_weights_1/Convert_to_float/Cast_06911_const" type="Const" version="opset1">
			<data element_type="u8" offset="600722" shape="336,392,1,1" size="131712"/>
			<output>
				<port id="1" precision="U8">
					<dim>336</dim>
					<dim>392</dim>
					<dim>1</dim>
					<dim>1</dim>
				</port>
			</output>
		</layer>
		<layer id="317" name="conv5_3/sep/fq_weights_1/Convert_to_float" type="Convert" version="opset1">
			<data destination_type="f16"/>
			<input>
				<port id="0">
					<dim>336</dim>
					<dim>392</dim>
					<dim>1</dim>
					<dim>1</dim>
				</port>
			</input>
			<output>
				<port id="1" precision="FP16">
					<dim>336</dim>
					<dim>392</dim>
					<dim>1</dim>
					<dim>1</dim>
				</port>
			</output>
		</layer>
		<layer id="318" name="conv5_3/sep/fq_weights_1/Copy/out_low5575_const" type="Const" version="opset1">
			<data element_type="f16" offset="876" shape="1" size="2"/>
			<output>
				<port id="1" precision="FP16">
					<dim>1</dim>
				</port>
			</output>
		</layer>
		<layer id="319" name="conv5_3/sep/fq_weights_1/Copy/out_high5576_const" type="Const" version="opset1">
			<data element_type="f16" offset="878" shape="1" size="2"/>
			<output>
				<port id="1" precision="FP16">
					<dim>1</dim>
				</port>
			</output>
		</layer>
		<layer id="320" name="28692873_const" type="Const" version="opset1">
			<data element_type="f16" offset="732434" shape="336,1,1,1" size="672"/>
			<output>
				<port id="1" precision="FP16">
					<dim>336</dim>
					<dim>1</dim>
					<dim>1</dim>
					<dim>1</dim>
				</port>
			</output>
		</layer>
		<layer id="321" name="28702874_const" type="Const" version="opset1">
			<data element_type="f16" offset="733106" shape="336,1,1,1" size="672"/>
			<output>
				<port id="1" precision="FP16">
					<dim>336</dim>
					<dim>1</dim>
					<dim>1</dim>
					<dim>1</dim>
				</port>
			</output>
		</layer>
		<layer id="322" name="conv5_3/sep/fq_weights_1" type="FakeQuantize" version="opset1">
			<data levels="255"/>
			<input>
				<port id="0">
					<dim>336</dim>
					<dim>392</dim>
					<dim>1</dim>
					<dim>1</dim>
				</port>
				<port id="1">
					<dim>1</dim>
				</port>
				<port id="2">
					<dim>1</dim>
				</port>
				<port id="3">
					<dim>336</dim>
					<dim>1</dim>
					<dim>1</dim>
					<dim>1</dim>
				</port>
				<port id="4">
					<dim>336</dim>
					<dim>1</dim>
					<dim>1</dim>
					<dim>1</dim>
				</port>
			</input>
			<output>
				<port id="5" precision="FP16">
					<dim>336</dim>
					<dim>392</dim>
					<dim>1</dim>
					<dim>1</dim>
				</port>
			</output>
		</layer>
		<layer id="323" name="conv5_3/sep" type="Convolution" version="opset1">
			<data dilations="1,1" output_padding="0,0" pads_begin="0,0" pads_end="0,0" strides="1,1"/>
			<input>
				<port id="0">
					<dim>1</dim>
					<dim>392</dim>
					<dim>24</dim>
					<dim>42</dim>
				</port>
				<port id="1">
					<dim>336</dim>
					<dim>392</dim>
					<dim>1</dim>
					<dim>1</dim>
				</port>
			</input>
			<output>
				<port id="2" precision="FP16">
					<dim>1</dim>
					<dim>336</dim>
					<dim>24</dim>
					<dim>42</dim>
				</port>
			</output>
		</layer>
		<layer id="324" name="data_add_108241082911151/EltwiseUnsqueeze11423_const598_const" type="Const" version="opset1">
			<data element_type="f16" offset="733778" shape="1,336,1,1" size="672"/>
			<output>
				<port id="1" precision="FP16">
					<dim>1</dim>
					<dim>336</dim>
					<dim>1</dim>
					<dim>1</dim>
				</port>
			</output>
		</layer>
		<layer id="325" name="conv5_3/sep/bn/variance/Fused_Add_" type="Add" version="opset1">
			<input>
				<port id="0">
					<dim>1</dim>
					<dim>336</dim>
					<dim>24</dim>
					<dim>42</dim>
				</port>
				<port id="1">
					<dim>1</dim>
					<dim>336</dim>
					<dim>1</dim>
					<dim>1</dim>
				</port>
			</input>
			<output>
				<port id="2" precision="FP16">
					<dim>1</dim>
					<dim>336</dim>
					<dim>24</dim>
					<dim>42</dim>
				</port>
			</output>
		</layer>
		<layer id="326" name="relu5_3/sep" type="ReLU" version="opset1">
			<input>
				<port id="0">
					<dim>1</dim>
					<dim>336</dim>
					<dim>24</dim>
					<dim>42</dim>
				</port>
			</input>
			<output>
				<port id="1" precision="FP16">
					<dim>1</dim>
					<dim>336</dim>
					<dim>24</dim>
					<dim>42</dim>
				</port>
			</output>
		</layer>
		<layer id="327" name="27372741_const" type="Const" version="opset1">
			<data element_type="f16" offset="734450" shape="1,336,1,1" size="672"/>
			<output>
				<port id="1" precision="FP16">
					<dim>1</dim>
					<dim>336</dim>
					<dim>1</dim>
					<dim>1</dim>
				</port>
			</output>
		</layer>
		<layer id="328" name="27382742_const" type="Const" version="opset1">
			<data element_type="f16" offset="735122" shape="1,336,1,1" size="672"/>
			<output>
				<port id="1" precision="FP16">
					<dim>1</dim>
					<dim>336</dim>
					<dim>1</dim>
					<dim>1</dim>
				</port>
			</output>
		</layer>
		<layer id="329" name="27392743_const" type="Const" version="opset1">
			<data element_type="f16" offset="734450" shape="1,336,1,1" size="672"/>
			<output>
				<port id="1" precision="FP16">
					<dim>1</dim>
					<dim>336</dim>
					<dim>1</dim>
					<dim>1</dim>
				</port>
			</output>
		</layer>
		<layer id="330" name="27402744_const" type="Const" version="opset1">
			<data element_type="f16" offset="735122" shape="1,336,1,1" size="672"/>
			<output>
				<port id="1" precision="FP16">
					<dim>1</dim>
					<dim>336</dim>
					<dim>1</dim>
					<dim>1</dim>
				</port>
			</output>
		</layer>
		<layer id="331" name="conv5_4/dw/fq_input_0" type="FakeQuantize" version="opset1">
			<data levels="256"/>
			<input>
				<port id="0">
					<dim>1</dim>
					<dim>336</dim>
					<dim>24</dim>
					<dim>42</dim>
				</port>
				<port id="1">
					<dim>1</dim>
					<dim>336</dim>
					<dim>1</dim>
					<dim>1</dim>
				</port>
				<port id="2">
					<dim>1</dim>
					<dim>336</dim>
					<dim>1</dim>
					<dim>1</dim>
				</port>
				<port id="3">
					<dim>1</dim>
					<dim>336</dim>
					<dim>1</dim>
					<dim>1</dim>
				</port>
				<port id="4">
					<dim>1</dim>
					<dim>336</dim>
					<dim>1</dim>
					<dim>1</dim>
				</port>
			</input>
			<output>
				<port id="5" precision="FP16">
					<dim>1</dim>
					<dim>336</dim>
					<dim>24</dim>
					<dim>42</dim>
				</port>
			</output>
		</layer>
		<layer id="332" name="conv5_4/dw/fq_weights_1/Convert_to_float/Cast_06667_const" type="Const" version="opset1">
			<data element_type="u8" offset="735794" shape="336,1,3,3" size="3024"/>
			<output>
				<port id="1" precision="U8">
					<dim>336</dim>
					<dim>1</dim>
					<dim>3</dim>
					<dim>3</dim>
				</port>
			</output>
		</layer>
		<layer id="333" name="conv5_4/dw/fq_weights_1/Convert_to_float" type="Convert" version="opset1">
			<data destination_type="f16"/>
			<input>
				<port id="0">
					<dim>336</dim>
					<dim>1</dim>
					<dim>3</dim>
					<dim>3</dim>
				</port>
			</input>
			<output>
				<port id="1" precision="FP16">
					<dim>336</dim>
					<dim>1</dim>
					<dim>3</dim>
					<dim>3</dim>
				</port>
			</output>
		</layer>
		<layer id="334" name="conv5_4/dw/fq_weights_1/Copy/out_low5951_const" type="Const" version="opset1">
			<data element_type="f16" offset="876" shape="1" size="2"/>
			<output>
				<port id="1" precision="FP16">
					<dim>1</dim>
				</port>
			</output>
		</layer>
		<layer id="335" name="conv5_4/dw/fq_weights_1/Copy/out_high5952_const" type="Const" version="opset1">
			<data element_type="f16" offset="878" shape="1" size="2"/>
			<output>
				<port id="1" precision="FP16">
					<dim>1</dim>
				</port>
			</output>
		</layer>
		<layer id="336" name="27492753_const" type="Const" version="opset1">
			<data element_type="f16" offset="738818" shape="336,1,1,1" size="672"/>
			<output>
				<port id="1" precision="FP16">
					<dim>336</dim>
					<dim>1</dim>
					<dim>1</dim>
					<dim>1</dim>
				</port>
			</output>
		</layer>
		<layer id="337" name="27502754_const" type="Const" version="opset1">
			<data element_type="f16" offset="739490" shape="336,1,1,1" size="672"/>
			<output>
				<port id="1" precision="FP16">
					<dim>336</dim>
					<dim>1</dim>
					<dim>1</dim>
					<dim>1</dim>
				</port>
			</output>
		</layer>
		<layer id="338" name="conv5_4/dw/fq_weights_1" type="FakeQuantize" version="opset1">
			<data levels="255"/>
			<input>
				<port id="0">
					<dim>336</dim>
					<dim>1</dim>
					<dim>3</dim>
					<dim>3</dim>
				</port>
				<port id="1">
					<dim>1</dim>
				</port>
				<port id="2">
					<dim>1</dim>
				</port>
				<port id="3">
					<dim>336</dim>
					<dim>1</dim>
					<dim>1</dim>
					<dim>1</dim>
				</port>
				<port id="4">
					<dim>336</dim>
					<dim>1</dim>
					<dim>1</dim>
					<dim>1</dim>
				</port>
			</input>
			<output>
				<port id="5" precision="FP16">
					<dim>336</dim>
					<dim>1</dim>
					<dim>3</dim>
					<dim>3</dim>
				</port>
			</output>
		</layer>
		<layer id="339" name="7602/value7604_const" type="Const" version="opset1">
			<data element_type="i64" offset="740162" shape="5" size="40"/>
			<output>
				<port id="1" precision="I64">
					<dim>5</dim>
				</port>
			</output>
		</layer>
		<layer id="340" name="7602" type="Reshape" version="opset1">
			<data special_zero="True"/>
			<input>
				<port id="0">
					<dim>336</dim>
					<dim>1</dim>
					<dim>3</dim>
					<dim>3</dim>
				</port>
				<port id="1">
					<dim>5</dim>
				</port>
			</input>
			<output>
				<port id="2" precision="FP16">
					<dim>336</dim>
					<dim>1</dim>
					<dim>1</dim>
					<dim>3</dim>
					<dim>3</dim>
				</port>
			</output>
		</layer>
		<layer id="341" name="conv5_4/dw" type="GroupConvolution" version="opset1">
			<data dilations="1,1" output_padding="0,0" pads_begin="1,1" pads_end="1,1" strides="1,1"/>
			<input>
				<port id="0">
					<dim>1</dim>
					<dim>336</dim>
					<dim>24</dim>
					<dim>42</dim>
				</port>
				<port id="1">
					<dim>336</dim>
					<dim>1</dim>
					<dim>1</dim>
					<dim>3</dim>
					<dim>3</dim>
				</port>
			</input>
			<output>
				<port id="2" precision="FP16">
					<dim>1</dim>
					<dim>336</dim>
					<dim>24</dim>
					<dim>42</dim>
				</port>
			</output>
		</layer>
		<layer id="342" name="data_add_108321083711153/EltwiseUnsqueeze11431_const603_const" type="Const" version="opset1">
			<data element_type="f16" offset="740202" shape="1,336,1,1" size="672"/>
			<output>
				<port id="1" precision="FP16">
					<dim>1</dim>
					<dim>336</dim>
					<dim>1</dim>
					<dim>1</dim>
				</port>
			</output>
		</layer>
		<layer id="343" name="conv5_4/dw/bn/variance/Fused_Add_" type="Add" version="opset1">
			<input>
				<port id="0">
					<dim>1</dim>
					<dim>336</dim>
					<dim>24</dim>
					<dim>42</dim>
				</port>
				<port id="1">
					<dim>1</dim>
					<dim>336</dim>
					<dim>1</dim>
					<dim>1</dim>
				</port>
			</input>
			<output>
				<port id="2" precision="FP16">
					<dim>1</dim>
					<dim>336</dim>
					<dim>24</dim>
					<dim>42</dim>
				</port>
			</output>
		</layer>
		<layer id="344" name="relu5_4/dw" type="ReLU" version="opset1">
			<input>
				<port id="0">
					<dim>1</dim>
					<dim>336</dim>
					<dim>24</dim>
					<dim>42</dim>
				</port>
			</input>
			<output>
				<port id="1" precision="FP16">
					<dim>1</dim>
					<dim>336</dim>
					<dim>24</dim>
					<dim>42</dim>
				</port>
			</output>
		</layer>
		<layer id="345" name="27972801_const" type="Const" version="opset1">
			<data element_type="f16" offset="876" shape="" size="2"/>
			<output>
				<port id="1" precision="FP16"/>
			</output>
		</layer>
		<layer id="346" name="27982802_const" type="Const" version="opset1">
			<data element_type="f16" offset="740874" shape="" size="2"/>
			<output>
				<port id="1" precision="FP16"/>
			</output>
		</layer>
		<layer id="347" name="27992803_const" type="Const" version="opset1">
			<data element_type="f16" offset="876" shape="" size="2"/>
			<output>
				<port id="1" precision="FP16"/>
			</output>
		</layer>
		<layer id="348" name="28002804_const" type="Const" version="opset1">
			<data element_type="f16" offset="740874" shape="" size="2"/>
			<output>
				<port id="1" precision="FP16"/>
			</output>
		</layer>
		<layer id="349" name="conv5_4/sep/fq_input_0" type="FakeQuantize" version="opset1">
			<data levels="256"/>
			<input>
				<port id="0">
					<dim>1</dim>
					<dim>336</dim>
					<dim>24</dim>
					<dim>42</dim>
				</port>
				<port id="1"/>
				<port id="2"/>
				<port id="3"/>
				<port id="4"/>
			</input>
			<output>
				<port id="5" precision="FP16">
					<dim>1</dim>
					<dim>336</dim>
					<dim>24</dim>
					<dim>42</dim>
				</port>
			</output>
		</layer>
		<layer id="350" name="conv5_4/sep/fq_weights_1/Convert_to_float/Cast_06835_const" type="Const" version="opset1">
			<data element_type="u8" offset="740876" shape="368,336,1,1" size="123648"/>
			<output>
				<port id="1" precision="U8">
					<dim>368</dim>
					<dim>336</dim>
					<dim>1</dim>
					<dim>1</dim>
				</port>
			</output>
		</layer>
		<layer id="351" name="conv5_4/sep/fq_weights_1/Convert_to_float" type="Convert" version="opset1">
			<data destination_type="f16"/>
			<input>
				<port id="0">
					<dim>368</dim>
					<dim>336</dim>
					<dim>1</dim>
					<dim>1</dim>
				</port>
			</input>
			<output>
				<port id="1" precision="FP16">
					<dim>368</dim>
					<dim>336</dim>
					<dim>1</dim>
					<dim>1</dim>
				</port>
			</output>
		</layer>
		<layer id="352" name="conv5_4/sep/fq_weights_1/Copy/out_low5775_const" type="Const" version="opset1">
			<data element_type="f16" offset="876" shape="1" size="2"/>
			<output>
				<port id="1" precision="FP16">
					<dim>1</dim>
				</port>
			</output>
		</layer>
		<layer id="353" name="conv5_4/sep/fq_weights_1/Copy/out_high5776_const" type="Const" version="opset1">
			<data element_type="f16" offset="878" shape="1" size="2"/>
			<output>
				<port id="1" precision="FP16">
					<dim>1</dim>
				</port>
			</output>
		</layer>
		<layer id="354" name="28092813_const" type="Const" version="opset1">
			<data element_type="f16" offset="864524" shape="368,1,1,1" size="736"/>
			<output>
				<port id="1" precision="FP16">
					<dim>368</dim>
					<dim>1</dim>
					<dim>1</dim>
					<dim>1</dim>
				</port>
			</output>
		</layer>
		<layer id="355" name="28102814_const" type="Const" version="opset1">
			<data element_type="f16" offset="865260" shape="368,1,1,1" size="736"/>
			<output>
				<port id="1" precision="FP16">
					<dim>368</dim>
					<dim>1</dim>
					<dim>1</dim>
					<dim>1</dim>
				</port>
			</output>
		</layer>
		<layer id="356" name="conv5_4/sep/fq_weights_1" type="FakeQuantize" version="opset1">
			<data levels="255"/>
			<input>
				<port id="0">
					<dim>368</dim>
					<dim>336</dim>
					<dim>1</dim>
					<dim>1</dim>
				</port>
				<port id="1">
					<dim>1</dim>
				</port>
				<port id="2">
					<dim>1</dim>
				</port>
				<port id="3">
					<dim>368</dim>
					<dim>1</dim>
					<dim>1</dim>
					<dim>1</dim>
				</port>
				<port id="4">
					<dim>368</dim>
					<dim>1</dim>
					<dim>1</dim>
					<dim>1</dim>
				</port>
			</input>
			<output>
				<port id="5" precision="FP16">
					<dim>368</dim>
					<dim>336</dim>
					<dim>1</dim>
					<dim>1</dim>
				</port>
			</output>
		</layer>
		<layer id="357" name="conv5_4/sep" type="Convolution" version="opset1">
			<data dilations="1,1" output_padding="0,0" pads_begin="0,0" pads_end="0,0" strides="1,1"/>
			<input>
				<port id="0">
					<dim>1</dim>
					<dim>336</dim>
					<dim>24</dim>
					<dim>42</dim>
				</port>
				<port id="1">
					<dim>368</dim>
					<dim>336</dim>
					<dim>1</dim>
					<dim>1</dim>
				</port>
			</input>
			<output>
				<port id="2" precision="FP16">
					<dim>1</dim>
					<dim>368</dim>
					<dim>24</dim>
					<dim>42</dim>
				</port>
			</output>
		</layer>
		<layer id="358" name="data_add_108401084511155/EltwiseUnsqueeze11439_const608_const" type="Const" version="opset1">
			<data element_type="f16" offset="865996" shape="1,368,1,1" size="736"/>
			<output>
				<port id="1" precision="FP16">
					<dim>1</dim>
					<dim>368</dim>
					<dim>1</dim>
					<dim>1</dim>
				</port>
			</output>
		</layer>
		<layer id="359" name="conv5_4/sep/bn/variance/Fused_Add_" type="Add" version="opset1">
			<input>
				<port id="0">
					<dim>1</dim>
					<dim>368</dim>
					<dim>24</dim>
					<dim>42</dim>
				</port>
				<port id="1">
					<dim>1</dim>
					<dim>368</dim>
					<dim>1</dim>
					<dim>1</dim>
				</port>
			</input>
			<output>
				<port id="2" precision="FP16">
					<dim>1</dim>
					<dim>368</dim>
					<dim>24</dim>
					<dim>42</dim>
				</port>
			</output>
		</layer>
		<layer id="360" name="relu5_4/sep" type="ReLU" version="opset1">
			<input>
				<port id="0">
					<dim>1</dim>
					<dim>368</dim>
					<dim>24</dim>
					<dim>42</dim>
				</port>
			</input>
			<output>
				<port id="1" precision="FP16">
					<dim>1</dim>
					<dim>368</dim>
					<dim>24</dim>
					<dim>42</dim>
				</port>
			</output>
		</layer>
		<layer id="361" name="24572461_const" type="Const" version="opset1">
			<data element_type="f16" offset="866732" shape="1,368,1,1" size="736"/>
			<output>
				<port id="1" precision="FP16">
					<dim>1</dim>
					<dim>368</dim>
					<dim>1</dim>
					<dim>1</dim>
				</port>
			</output>
		</layer>
		<layer id="362" name="24582462_const" type="Const" version="opset1">
			<data element_type="f16" offset="867468" shape="1,368,1,1" size="736"/>
			<output>
				<port id="1" precision="FP16">
					<dim>1</dim>
					<dim>368</dim>
					<dim>1</dim>
					<dim>1</dim>
				</port>
			</output>
		</layer>
		<layer id="363" name="24592463_const" type="Const" version="opset1">
			<data element_type="f16" offset="866732" shape="1,368,1,1" size="736"/>
			<output>
				<port id="1" precision="FP16">
					<dim>1</dim>
					<dim>368</dim>
					<dim>1</dim>
					<dim>1</dim>
				</port>
			</output>
		</layer>
		<layer id="364" name="24602464_const" type="Const" version="opset1">
			<data element_type="f16" offset="867468" shape="1,368,1,1" size="736"/>
			<output>
				<port id="1" precision="FP16">
					<dim>1</dim>
					<dim>368</dim>
					<dim>1</dim>
					<dim>1</dim>
				</port>
			</output>
		</layer>
		<layer id="365" name="conv5_5/dw/fq_input_0" type="FakeQuantize" version="opset1">
			<data levels="256"/>
			<input>
				<port id="0">
					<dim>1</dim>
					<dim>368</dim>
					<dim>24</dim>
					<dim>42</dim>
				</port>
				<port id="1">
					<dim>1</dim>
					<dim>368</dim>
					<dim>1</dim>
					<dim>1</dim>
				</port>
				<port id="2">
					<dim>1</dim>
					<dim>368</dim>
					<dim>1</dim>
					<dim>1</dim>
				</port>
				<port id="3">
					<dim>1</dim>
					<dim>368</dim>
					<dim>1</dim>
					<dim>1</dim>
				</port>
				<port id="4">
					<dim>1</dim>
					<dim>368</dim>
					<dim>1</dim>
					<dim>1</dim>
				</port>
			</input>
			<output>
				<port id="5" precision="FP16">
					<dim>1</dim>
					<dim>368</dim>
					<dim>24</dim>
					<dim>42</dim>
				</port>
			</output>
		</layer>
		<layer id="366" name="conv5_5/dw/fq_weights_1/Convert_to_float/Cast_06773_const" type="Const" version="opset1">
			<data element_type="u8" offset="868204" shape="368,1,3,3" size="3312"/>
			<output>
				<port id="1" precision="U8">
					<dim>368</dim>
					<dim>1</dim>
					<dim>3</dim>
					<dim>3</dim>
				</port>
			</output>
		</layer>
		<layer id="367" name="conv5_5/dw/fq_weights_1/Convert_to_float" type="Convert" version="opset1">
			<data destination_type="f16"/>
			<input>
				<port id="0">
					<dim>368</dim>
					<dim>1</dim>
					<dim>3</dim>
					<dim>3</dim>
				</port>
			</input>
			<output>
				<port id="1" precision="FP16">
					<dim>368</dim>
					<dim>1</dim>
					<dim>3</dim>
					<dim>3</dim>
				</port>
			</output>
		</layer>
		<layer id="368" name="conv5_5/dw/fq_weights_1/Copy/out_low5615_const" type="Const" version="opset1">
			<data element_type="f16" offset="876" shape="1" size="2"/>
			<output>
				<port id="1" precision="FP16">
					<dim>1</dim>
				</port>
			</output>
		</layer>
		<layer id="369" name="conv5_5/dw/fq_weights_1/Copy/out_high5616_const" type="Const" version="opset1">
			<data element_type="f16" offset="878" shape="1" size="2"/>
			<output>
				<port id="1" precision="FP16">
					<dim>1</dim>
				</port>
			</output>
		</layer>
		<layer id="370" name="24692473_const" type="Const" version="opset1">
			<data element_type="f16" offset="871516" shape="368,1,1,1" size="736"/>
			<output>
				<port id="1" precision="FP16">
					<dim>368</dim>
					<dim>1</dim>
					<dim>1</dim>
					<dim>1</dim>
				</port>
			</output>
		</layer>
		<layer id="371" name="24702474_const" type="Const" version="opset1">
			<data element_type="f16" offset="872252" shape="368,1,1,1" size="736"/>
			<output>
				<port id="1" precision="FP16">
					<dim>368</dim>
					<dim>1</dim>
					<dim>1</dim>
					<dim>1</dim>
				</port>
			</output>
		</layer>
		<layer id="372" name="conv5_5/dw/fq_weights_1" type="FakeQuantize" version="opset1">
			<data levels="255"/>
			<input>
				<port id="0">
					<dim>368</dim>
					<dim>1</dim>
					<dim>3</dim>
					<dim>3</dim>
				</port>
				<port id="1">
					<dim>1</dim>
				</port>
				<port id="2">
					<dim>1</dim>
				</port>
				<port id="3">
					<dim>368</dim>
					<dim>1</dim>
					<dim>1</dim>
					<dim>1</dim>
				</port>
				<port id="4">
					<dim>368</dim>
					<dim>1</dim>
					<dim>1</dim>
					<dim>1</dim>
				</port>
			</input>
			<output>
				<port id="5" precision="FP16">
					<dim>368</dim>
					<dim>1</dim>
					<dim>3</dim>
					<dim>3</dim>
				</port>
			</output>
		</layer>
		<layer id="373" name="7554/value7556_const" type="Const" version="opset1">
			<data element_type="i64" offset="872988" shape="5" size="40"/>
			<output>
				<port id="1" precision="I64">
					<dim>5</dim>
				</port>
			</output>
		</layer>
		<layer id="374" name="7554" type="Reshape" version="opset1">
			<data special_zero="True"/>
			<input>
				<port id="0">
					<dim>368</dim>
					<dim>1</dim>
					<dim>3</dim>
					<dim>3</dim>
				</port>
				<port id="1">
					<dim>5</dim>
				</port>
			</input>
			<output>
				<port id="2" precision="FP16">
					<dim>368</dim>
					<dim>1</dim>
					<dim>1</dim>
					<dim>3</dim>
					<dim>3</dim>
				</port>
			</output>
		</layer>
		<layer id="375" name="conv5_5/dw" type="GroupConvolution" version="opset1">
			<data dilations="1,1" output_padding="0,0" pads_begin="1,1" pads_end="1,1" strides="1,1"/>
			<input>
				<port id="0">
					<dim>1</dim>
					<dim>368</dim>
					<dim>24</dim>
					<dim>42</dim>
				</port>
				<port id="1">
					<dim>368</dim>
					<dim>1</dim>
					<dim>1</dim>
					<dim>3</dim>
					<dim>3</dim>
				</port>
			</input>
			<output>
				<port id="2" precision="FP16">
					<dim>1</dim>
					<dim>368</dim>
					<dim>24</dim>
					<dim>42</dim>
				</port>
			</output>
		</layer>
		<layer id="376" name="data_add_108481085311157/EltwiseUnsqueeze11447_const613_const" type="Const" version="opset1">
			<data element_type="f16" offset="873028" shape="1,368,1,1" size="736"/>
			<output>
				<port id="1" precision="FP16">
					<dim>1</dim>
					<dim>368</dim>
					<dim>1</dim>
					<dim>1</dim>
				</port>
			</output>
		</layer>
		<layer id="377" name="conv5_5/dw/bn/variance/Fused_Add_" type="Add" version="opset1">
			<input>
				<port id="0">
					<dim>1</dim>
					<dim>368</dim>
					<dim>24</dim>
					<dim>42</dim>
				</port>
				<port id="1">
					<dim>1</dim>
					<dim>368</dim>
					<dim>1</dim>
					<dim>1</dim>
				</port>
			</input>
			<output>
				<port id="2" precision="FP16">
					<dim>1</dim>
					<dim>368</dim>
					<dim>24</dim>
					<dim>42</dim>
				</port>
			</output>
		</layer>
		<layer id="378" name="relu5_5/dw" type="ReLU" version="opset1">
			<input>
				<port id="0">
					<dim>1</dim>
					<dim>368</dim>
					<dim>24</dim>
					<dim>42</dim>
				</port>
			</input>
			<output>
				<port id="1" precision="FP16">
					<dim>1</dim>
					<dim>368</dim>
					<dim>24</dim>
					<dim>42</dim>
				</port>
			</output>
		</layer>
		<layer id="379" name="19171921_const" type="Const" version="opset1">
			<data element_type="f16" offset="876" shape="" size="2"/>
			<output>
				<port id="1" precision="FP16"/>
			</output>
		</layer>
		<layer id="380" name="19181922_const" type="Const" version="opset1">
			<data element_type="f16" offset="873764" shape="" size="2"/>
			<output>
				<port id="1" precision="FP16"/>
			</output>
		</layer>
		<layer id="381" name="19191923_const" type="Const" version="opset1">
			<data element_type="f16" offset="876" shape="" size="2"/>
			<output>
				<port id="1" precision="FP16"/>
			</output>
		</layer>
		<layer id="382" name="19201924_const" type="Const" version="opset1">
			<data element_type="f16" offset="873764" shape="" size="2"/>
			<output>
				<port id="1" precision="FP16"/>
			</output>
		</layer>
		<layer id="383" name="conv5_5/sep/fq_input_0" type="FakeQuantize" version="opset1">
			<data levels="256"/>
			<input>
				<port id="0">
					<dim>1</dim>
					<dim>368</dim>
					<dim>24</dim>
					<dim>42</dim>
				</port>
				<port id="1"/>
				<port id="2"/>
				<port id="3"/>
				<port id="4"/>
			</input>
			<output>
				<port id="5" precision="FP16">
					<dim>1</dim>
					<dim>368</dim>
					<dim>24</dim>
					<dim>42</dim>
				</port>
			</output>
		</layer>
		<layer id="384" name="conv5_5/sep/fq_weights_1/Convert_to_float/Cast_06775_const" type="Const" version="opset1">
			<data element_type="u8" offset="873766" shape="264,368,1,1" size="97152"/>
			<output>
				<port id="1" precision="U8">
					<dim>264</dim>
					<dim>368</dim>
					<dim>1</dim>
					<dim>1</dim>
				</port>
			</output>
		</layer>
		<layer id="385" name="conv5_5/sep/fq_weights_1/Convert_to_float" type="Convert" version="opset1">
			<data destination_type="f16"/>
			<input>
				<port id="0">
					<dim>264</dim>
					<dim>368</dim>
					<dim>1</dim>
					<dim>1</dim>
				</port>
			</input>
			<output>
				<port id="1" precision="FP16">
					<dim>264</dim>
					<dim>368</dim>
					<dim>1</dim>
					<dim>1</dim>
				</port>
			</output>
		</layer>
		<layer id="386" name="conv5_5/sep/fq_weights_1/Copy/out_low5591_const" type="Const" version="opset1">
			<data element_type="f16" offset="876" shape="1" size="2"/>
			<output>
				<port id="1" precision="FP16">
					<dim>1</dim>
				</port>
			</output>
		</layer>
		<layer id="387" name="conv5_5/sep/fq_weights_1/Copy/out_high5592_const" type="Const" version="opset1">
			<data element_type="f16" offset="878" shape="1" size="2"/>
			<output>
				<port id="1" precision="FP16">
					<dim>1</dim>
				</port>
			</output>
		</layer>
		<layer id="388" name="19291933_const" type="Const" version="opset1">
			<data element_type="f16" offset="970918" shape="264,1,1,1" size="528"/>
			<output>
				<port id="1" precision="FP16">
					<dim>264</dim>
					<dim>1</dim>
					<dim>1</dim>
					<dim>1</dim>
				</port>
			</output>
		</layer>
		<layer id="389" name="19301934_const" type="Const" version="opset1">
			<data element_type="f16" offset="971446" shape="264,1,1,1" size="528"/>
			<output>
				<port id="1" precision="FP16">
					<dim>264</dim>
					<dim>1</dim>
					<dim>1</dim>
					<dim>1</dim>
				</port>
			</output>
		</layer>
		<layer id="390" name="conv5_5/sep/fq_weights_1" type="FakeQuantize" version="opset1">
			<data levels="255"/>
			<input>
				<port id="0">
					<dim>264</dim>
					<dim>368</dim>
					<dim>1</dim>
					<dim>1</dim>
				</port>
				<port id="1">
					<dim>1</dim>
				</port>
				<port id="2">
					<dim>1</dim>
				</port>
				<port id="3">
					<dim>264</dim>
					<dim>1</dim>
					<dim>1</dim>
					<dim>1</dim>
				</port>
				<port id="4">
					<dim>264</dim>
					<dim>1</dim>
					<dim>1</dim>
					<dim>1</dim>
				</port>
			</input>
			<output>
				<port id="5" precision="FP16">
					<dim>264</dim>
					<dim>368</dim>
					<dim>1</dim>
					<dim>1</dim>
				</port>
			</output>
		</layer>
		<layer id="391" name="conv5_5/sep" type="Convolution" version="opset1">
			<data dilations="1,1" output_padding="0,0" pads_begin="0,0" pads_end="0,0" strides="1,1"/>
			<input>
				<port id="0">
					<dim>1</dim>
					<dim>368</dim>
					<dim>24</dim>
					<dim>42</dim>
				</port>
				<port id="1">
					<dim>264</dim>
					<dim>368</dim>
					<dim>1</dim>
					<dim>1</dim>
				</port>
			</input>
			<output>
				<port id="2" precision="FP16">
					<dim>1</dim>
					<dim>264</dim>
					<dim>24</dim>
					<dim>42</dim>
				</port>
			</output>
		</layer>
		<layer id="392" name="data_add_108561086111159/EltwiseUnsqueeze11455_const618_const" type="Const" version="opset1">
			<data element_type="f16" offset="971974" shape="1,264,1,1" size="528"/>
			<output>
				<port id="1" precision="FP16">
					<dim>1</dim>
					<dim>264</dim>
					<dim>1</dim>
					<dim>1</dim>
				</port>
			</output>
		</layer>
		<layer id="393" name="conv5_5/sep/bn/variance/Fused_Add_" type="Add" version="opset1">
			<input>
				<port id="0">
					<dim>1</dim>
					<dim>264</dim>
					<dim>24</dim>
					<dim>42</dim>
				</port>
				<port id="1">
					<dim>1</dim>
					<dim>264</dim>
					<dim>1</dim>
					<dim>1</dim>
				</port>
			</input>
			<output>
				<port id="2" precision="FP16">
					<dim>1</dim>
					<dim>264</dim>
					<dim>24</dim>
					<dim>42</dim>
				</port>
			</output>
		</layer>
		<layer id="394" name="relu5_5/sep" type="ReLU" version="opset1">
			<input>
				<port id="0">
					<dim>1</dim>
					<dim>264</dim>
					<dim>24</dim>
					<dim>42</dim>
				</port>
			</input>
			<output>
				<port id="1" precision="FP16">
					<dim>1</dim>
					<dim>264</dim>
					<dim>24</dim>
					<dim>42</dim>
				</port>
			</output>
		</layer>
		<layer id="395" name="22972301_const" type="Const" version="opset1">
			<data element_type="f16" offset="876" shape="" size="2"/>
			<output>
				<port id="1" precision="FP16"/>
			</output>
		</layer>
		<layer id="396" name="22982302_const" type="Const" version="opset1">
			<data element_type="f16" offset="972502" shape="" size="2"/>
			<output>
				<port id="1" precision="FP16"/>
			</output>
		</layer>
		<layer id="397" name="22992303_const" type="Const" version="opset1">
			<data element_type="f16" offset="876" shape="" size="2"/>
			<output>
				<port id="1" precision="FP16"/>
			</output>
		</layer>
		<layer id="398" name="23002304_const" type="Const" version="opset1">
			<data element_type="f16" offset="972502" shape="" size="2"/>
			<output>
				<port id="1" precision="FP16"/>
			</output>
		</layer>
		<layer id="399" name="conv4_3_0_norm_mbox_conf/WithoutBiases/fq_input_0" type="FakeQuantize" version="opset1">
			<data levels="256"/>
			<input>
				<port id="0">
					<dim>1</dim>
					<dim>264</dim>
					<dim>24</dim>
					<dim>42</dim>
				</port>
				<port id="1"/>
				<port id="2"/>
				<port id="3"/>
				<port id="4"/>
			</input>
			<output>
				<port id="5" precision="FP16">
					<dim>1</dim>
					<dim>264</dim>
					<dim>24</dim>
					<dim>42</dim>
				</port>
			</output>
		</layer>
		<layer id="400" name="conv4_3_0_norm_mbox_loc/WithoutBiases/fq_weights_1/Convert_to_float/Cast_06869_const" type="Const" version="opset1">
			<data element_type="u8" offset="972504" shape="16,264,3,3" size="38016"/>
			<output>
				<port id="1" precision="U8">
					<dim>16</dim>
					<dim>264</dim>
					<dim>3</dim>
					<dim>3</dim>
				</port>
			</output>
		</layer>
		<layer id="401" name="conv4_3_0_norm_mbox_loc/WithoutBiases/fq_weights_1/Convert_to_float" type="Convert" version="opset1">
			<data destination_type="f16"/>
			<input>
				<port id="0">
					<dim>16</dim>
					<dim>264</dim>
					<dim>3</dim>
					<dim>3</dim>
				</port>
			</input>
			<output>
				<port id="1" precision="FP16">
					<dim>16</dim>
					<dim>264</dim>
					<dim>3</dim>
					<dim>3</dim>
				</port>
			</output>
		</layer>
		<layer id="402" name="conv4_3_0_norm_mbox_loc/WithoutBiases/fq_weights_1/Copy/out_low5727_const" type="Const" version="opset1">
			<data element_type="f16" offset="876" shape="1" size="2"/>
			<output>
				<port id="1" precision="FP16">
					<dim>1</dim>
				</port>
			</output>
		</layer>
		<layer id="403" name="conv4_3_0_norm_mbox_loc/WithoutBiases/fq_weights_1/Copy/out_high5728_const" type="Const" version="opset1">
			<data element_type="f16" offset="878" shape="1" size="2"/>
			<output>
…
		<edge from-layer="458" from-port="1" to-layer="461" to-port="2"/>
		<edge from-layer="459" from-port="1" to-layer="461" to-port="3"/>
		<edge from-layer="460" from-port="1" to-layer="461" to-port="4"/>
		<edge from-layer="462" from-port="1" to-layer="463" to-port="0"/>
		<edge from-layer="463" from-port="1" to-layer="468" to-port="0"/>
		<edge from-layer="464" from-port="1" to-layer="468" to-port="1"/>
		<edge from-layer="465" from-port="1" to-layer="468" to-port="2"/>
		<edge from-layer="466" from-port="1" to-layer="468" to-port="3"/>
		<edge from-layer="467" from-port="1" to-layer="468" to-port="4"/>
		<edge from-layer="468" from-port="5" to-layer="470" to-port="0"/>
		<edge from-layer="469" from-port="1" to-layer="470" to-port="1"/>
		<edge from-layer="461" from-port="5" to-layer="471" to-port="0"/>
		<edge from-layer="470" from-port="2" to-layer="471" to-port="1"/>
		<edge from-layer="471" from-port="2" to-layer="473" to-port="0"/>
		<edge from-layer="472" from-port="1" to-layer="473" to-port="1"/>
		<edge from-layer="473" from-port="2" to-layer="474" to-port="0"/>
		<edge from-layer="474" from-port="1" to-layer="479" to-port="0"/>
		<edge from-layer="475" from-port="1" to-layer="479" to-port="1"/>
		<edge from-layer="476" from-port="1" to-layer="479" to-port="2"/>
		<edge from-layer="477" from-port="1" to-layer="479" to-port="3"/>
		<edge from-layer="478" from-port="1" to-layer="479" to-port="4"/>
		<edge from-layer="480" from-port="1" to-layer="481" to-port="0"/>
		<edge from-layer="481" from-port="1" to-layer="486" to-port="0"/>
		<edge from-layer="482" from-port="1" to-layer="486" to-port="1"/>
		<edge from-layer="483" from-port="1" to-layer="486" to-port="2"/>
		<edge from-layer="484" from-port="1" to-layer="486" to-port="3"/>
		<edge from-layer="485" from-port="1" to-layer="486" to-port="4"/>
		<edge from-layer="479" from-port="5" to-layer="487" to-port="0"/>
		<edge from-layer="486" from-port="5" to-layer="487" to-port="1"/>
		<edge from-layer="487" from-port="2" to-layer="489" to-port="0"/>
		<edge from-layer="488" from-port="1" to-layer="489" to-port="1"/>
		<edge from-layer="489" from-port="2" to-layer="490" to-port="0"/>
		<edge from-layer="490" from-port="1" to-layer="495" to-port="0"/>
		<edge from-layer="491" from-port="1" to-layer="495" to-port="1"/>
		<edge from-layer="492" from-port="1" to-layer="495" to-port="2"/>
		<edge from-layer="493" from-port="1" to-layer="495" to-port="3"/>
		<edge from-layer="494" from-port="1" to-layer="495" to-port="4"/>
		<edge from-layer="496" from-port="1" to-layer="497" to-port="0"/>
		<edge from-layer="497" from-port="1" to-layer="502" to-port="0"/>
		<edge from-layer="498" from-port="1" to-layer="502" to-port="1"/>
		<edge from-layer="499" from-port="1" to-layer="502" to-port="2"/>
		<edge from-layer="500" from-port="1" to-layer="502" to-port="3"/>
		<edge from-layer="501" from-port="1" to-layer="502" to-port="4"/>
		<edge from-layer="495" from-port="5" to-layer="503" to-port="0"/>
		<edge from-layer="502" from-port="5" to-layer="503" to-port="1"/>
		<edge from-layer="503" from-port="2" to-layer="505" to-port="0"/>
		<edge from-layer="504" from-port="1" to-layer="505" to-port="1"/>
		<edge from-layer="505" from-port="2" to-layer="507" to-port="0"/>
		<edge from-layer="506" from-port="1" to-layer="507" to-port="1"/>
		<edge from-layer="507" from-port="2" to-layer="509" to-port="0"/>
		<edge from-layer="508" from-port="1" to-layer="509" to-port="1"/>
		<edge from-layer="510" from-port="1" to-layer="511" to-port="0"/>
		<edge from-layer="511" from-port="1" to-layer="516" to-port="0"/>
		<edge from-layer="512" from-port="1" to-layer="516" to-port="1"/>
		<edge from-layer="513" from-port="1" to-layer="516" to-port="2"/>
		<edge from-layer="514" from-port="1" to-layer="516" to-port="3"/>
		<edge from-layer="515" from-port="1" to-layer="516" to-port="4"/>
		<edge from-layer="495" from-port="5" to-layer="517" to-port="0"/>
		<edge from-layer="516" from-port="5" to-layer="517" to-port="1"/>
		<edge from-layer="517" from-port="2" to-layer="519" to-port="0"/>
		<edge from-layer="518" from-port="1" to-layer="519" to-port="1"/>
		<edge from-layer="519" from-port="2" to-layer="521" to-port="0"/>
		<edge from-layer="520" from-port="1" to-layer="521" to-port="1"/>
		<edge from-layer="521" from-port="2" to-layer="523" to-port="0"/>
		<edge from-layer="522" from-port="1" to-layer="523" to-port="1"/>
		<edge from-layer="524" from-port="1" to-layer="525" to-port="0"/>
		<edge from-layer="525" from-port="1" to-layer="530" to-port="0"/>
		<edge from-layer="526" from-port="1" to-layer="530" to-port="1"/>
		<edge from-layer="527" from-port="1" to-layer="530" to-port="2"/>
		<edge from-layer="528" from-port="1" to-layer="530" to-port="3"/>
		<edge from-layer="529" from-port="1" to-layer="530" to-port="4"/>
		<edge from-layer="495" from-port="5" to-layer="531" to-port="0"/>
		<edge from-layer="530" from-port="5" to-layer="531" to-port="1"/>
		<edge from-layer="531" from-port="2" to-layer="533" to-port="0"/>
		<edge from-layer="532" from-port="1" to-layer="533" to-port="1"/>
		<edge from-layer="533" from-port="2" to-layer="534" to-port="0"/>
		<edge from-layer="534" from-port="1" to-layer="539" to-port="0"/>
		<edge from-layer="535" from-port="1" to-layer="539" to-port="1"/>
		<edge from-layer="536" from-port="1" to-layer="539" to-port="2"/>
		<edge from-layer="537" from-port="1" to-layer="539" to-port="3"/>
		<edge from-layer="538" from-port="1" to-layer="539" to-port="4"/>
		<edge from-layer="540" from-port="1" to-layer="541" to-port="0"/>
		<edge from-layer="541" from-port="1" to-layer="546" to-port="0"/>
		<edge from-layer="542" from-port="1" to-layer="546" to-port="1"/>
		<edge from-layer="543" from-port="1" to-layer="546" to-port="2"/>
		<edge from-layer="544" from-port="1" to-layer="546" to-port="3"/>
		<edge from-layer="545" from-port="1" to-layer="546" to-port="4"/>
		<edge from-layer="546" from-port="5" to-layer="548" to-port="0"/>
		<edge from-layer="547" from-port="1" to-layer="548" to-port="1"/>
		<edge from-layer="539" from-port="5" to-layer="549" to-port="0"/>
		<edge from-layer="548" from-port="2" to-layer="549" to-port="1"/>
		<edge from-layer="549" from-port="2" to-layer="551" to-port="0"/>
		<edge from-layer="550" from-port="1" to-layer="551" to-port="1"/>
		<edge from-layer="551" from-port="2" to-layer="552" to-port="0"/>
		<edge from-layer="552" from-port="1" to-layer="557" to-port="0"/>
		<edge from-layer="553" from-port="1" to-layer="557" to-port="1"/>
		<edge from-layer="554" from-port="1" to-layer="557" to-port="2"/>
		<edge from-layer="555" from-port="1" to-layer="557" to-port="3"/>
		<edge from-layer="556" from-port="1" to-layer="557" to-port="4"/>
		<edge from-layer="558" from-port="1" to-layer="559" to-port="0"/>
		<edge from-layer="559" from-port="1" to-layer="564" to-port="0"/>
		<edge from-layer="560" from-port="1" to-layer="564" to-port="1"/>
		<edge from-layer="561" from-port="1" to-layer="564" to-port="2"/>
		<edge from-layer="562" from-port="1" to-layer="564" to-port="3"/>
		<edge from-layer="563" from-port="1" to-layer="564" to-port="4"/>
		<edge from-layer="557" from-port="5" to-layer="565" to-port="0"/>
		<edge from-layer="564" from-port="5" to-layer="565" to-port="1"/>
		<edge from-layer="565" from-port="2" to-layer="567" to-port="0"/>
		<edge from-layer="566" from-port="1" to-layer="567" to-port="1"/>
		<edge from-layer="567" from-port="2" to-layer="568" to-port="0"/>
		<edge from-layer="568" from-port="1" to-layer="573" to-port="0"/>
		<edge from-layer="569" from-port="1" to-layer="573" to-port="1"/>
		<edge from-layer="570" from-port="1" to-layer="573" to-port="2"/>
		<edge from-layer="571" from-port="1" to-layer="573" to-port="3"/>
		<edge from-layer="572" from-port="1" to-layer="573" to-port="4"/>
		<edge from-layer="574" from-port="1" to-layer="575" to-port="0"/>
		<edge from-layer="575" from-port="1" to-layer="580" to-port="0"/>
		<edge from-layer="576" from-port="1" to-layer="580" to-port="1"/>
		<edge from-layer="577" from-port="1" to-layer="580" to-port="2"/>
		<edge from-layer="578" from-port="1" to-layer="580" to-port="3"/>
		<edge from-layer="579" from-port="1" to-layer="580" to-port="4"/>
		<edge from-layer="573" from-port="5" to-layer="581" to-port="0"/>
		<edge from-layer="580" from-port="5" to-layer="581" to-port="1"/>
		<edge from-layer="581" from-port="2" to-layer="583" to-port="0"/>
		<edge from-layer="582" from-port="1" to-layer="583" to-port="1"/>
		<edge from-layer="583" from-port="2" to-layer="585" to-port="0"/>
		<edge from-layer="584" from-port="1" to-layer="585" to-port="1"/>
		<edge from-layer="585" from-port="2" to-layer="587" to-port="0"/>
		<edge from-layer="586" from-port="1" to-layer="587" to-port="1"/>
		<edge from-layer="588" from-port="1" to-layer="589" to-port="0"/>
		<edge from-layer="589" from-port="1" to-layer="594" to-port="0"/>
		<edge from-layer="590" from-port="1" to-layer="594" to-port="1"/>
		<edge from-layer="591" from-port="1" to-layer="594" to-port="2"/>
		<edge from-layer="592" from-port="1" to-layer="594" to-port="3"/>
		<edge from-layer="593" from-port="1" to-layer="594" to-port="4"/>
		<edge from-layer="573" from-port="5" to-layer="595" to-port="0"/>
		<edge from-layer="594" from-port="5" to-layer="595" to-port="1"/>
		<edge from-layer="595" from-port="2" to-layer="597" to-port="0"/>
		<edge from-layer="596" from-port="1" to-layer="597" to-port="1"/>
		<edge from-layer="597" from-port="2" to-layer="599" to-port="0"/>
		<edge from-layer="598" from-port="1" to-layer="599" to-port="1"/>
		<edge from-layer="599" from-port="2" to-layer="601" to-port="0"/>
		<edge from-layer="600" from-port="1" to-layer="601" to-port="1"/>
		<edge from-layer="602" from-port="1" to-layer="603" to-port="0"/>
		<edge from-layer="603" from-port="1" to-layer="608" to-port="0"/>
		<edge from-layer="604" from-port="1" to-layer="608" to-port="1"/>
		<edge from-layer="605" from-port="1" to-layer="608" to-port="2"/>
		<edge from-layer="606" from-port="1" to-layer="608" to-port="3"/>
		<edge from-layer="607" from-port="1" to-layer="608" to-port="4"/>
		<edge from-layer="573" from-port="5" to-layer="609" to-port="0"/>
		<edge from-layer="608" from-port="5" to-layer="609" to-port="1"/>
		<edge from-layer="609" from-port="2" to-layer="611" to-port="0"/>
		<edge from-layer="610" from-port="1" to-layer="611" to-port="1"/>
		<edge from-layer="611" from-port="2" to-layer="612" to-port="0"/>
		<edge from-layer="612" from-port="1" to-layer="617" to-port="0"/>
		<edge from-layer="613" from-port="1" to-layer="617" to-port="1"/>
		<edge from-layer="614" from-port="1" to-layer="617" to-port="2"/>
		<edge from-layer="615" from-port="1" to-layer="617" to-port="3"/>
		<edge from-layer="616" from-port="1" to-layer="617" to-port="4"/>
		<edge from-layer="618" from-port="1" to-layer="619" to-port="0"/>
		<edge from-layer="619" from-port="1" to-layer="624" to-port="0"/>
		<edge from-layer="620" from-port="1" to-layer="624" to-port="1"/>
		<edge from-layer="621" from-port="1" to-layer="624" to-port="2"/>
		<edge from-layer="622" from-port="1" to-layer="624" to-port="3"/>
		<edge from-layer="623" from-port="1" to-layer="624" to-port="4"/>
		<edge from-layer="624" from-port="5" to-layer="626" to-port="0"/>
		<edge from-layer="625" from-port="1" to-layer="626" to-port="1"/>
		<edge from-layer="617" from-port="5" to-layer="627" to-port="0"/>
		<edge from-layer="626" from-port="2" to-layer="627" to-port="1"/>
		<edge from-layer="627" from-port="2" to-layer="629" to-port="0"/>
		<edge from-layer="628" from-port="1" to-layer="629" to-port="1"/>
		<edge from-layer="629" from-port="2" to-layer="630" to-port="0"/>
		<edge from-layer="630" from-port="1" to-layer="635" to-port="0"/>
		<edge from-layer="631" from-port="1" to-layer="635" to-port="1"/>
		<edge from-layer="632" from-port="1" to-layer="635" to-port="2"/>
		<edge from-layer="633" from-port="1" to-layer="635" to-port="3"/>
		<edge from-layer="634" from-port="1" to-layer="635" to-port="4"/>
		<edge from-layer="636" from-port="1" to-layer="637" to-port="0"/>
		<edge from-layer="637" from-port="1" to-layer="642" to-port="0"/>
		<edge from-layer="638" from-port="1" to-layer="642" to-port="1"/>
		<edge from-layer="639" from-port="1" to-layer="642" to-port="2"/>
		<edge from-layer="640" from-port="1" to-layer="642" to-port="3"/>
		<edge from-layer="641" from-port="1" to-layer="642" to-port="4"/>
		<edge from-layer="635" from-port="5" to-layer="643" to-port="0"/>
		<edge from-layer="642" from-port="5" to-layer="643" to-port="1"/>
		<edge from-layer="643" from-port="2" to-layer="645" to-port="0"/>
		<edge from-layer="644" from-port="1" to-layer="645" to-port="1"/>
		<edge from-layer="645" from-port="2" to-layer="646" to-port="0"/>
		<edge from-layer="646" from-port="1" to-layer="651" to-port="0"/>
		<edge from-layer="647" from-port="1" to-layer="651" to-port="1"/>
		<edge from-layer="648" from-port="1" to-layer="651" to-port="2"/>
		<edge from-layer="649" from-port="1" to-layer="651" to-port="3"/>
		<edge from-layer="650" from-port="1" to-layer="651" to-port="4"/>
		<edge from-layer="652" from-port="1" to-layer="653" to-port="0"/>
		<edge from-layer="653" from-port="1" to-layer="658" to-port="0"/>
		<edge from-layer="654" from-port="1" to-layer="658" to-port="1"/>
		<edge from-layer="655" from-port="1" to-layer="658" to-port="2"/>
		<edge from-layer="656" from-port="1" to-layer="658" to-port="3"/>
		<edge from-layer="657" from-port="1" to-layer="658" to-port="4"/>
		<edge from-layer="651" from-port="5" to-layer="659" to-port="0"/>
		<edge from-layer="658" from-port="5" to-layer="659" to-port="1"/>
		<edge from-layer="659" from-port="2" to-layer="661" to-port="0"/>
		<edge from-layer="660" from-port="1" to-layer="661" to-port="1"/>
		<edge from-layer="661" from-port="2" to-layer="663" to-port="0"/>
		<edge from-layer="662" from-port="1" to-layer="663" to-port="1"/>
		<edge from-layer="663" from-port="2" to-layer="665" to-port="0"/>
		<edge from-layer="664" from-port="1" to-layer="665" to-port="1"/>
		<edge from-layer="666" from-port="1" to-layer="667" to-port="0"/>
		<edge from-layer="667" from-port="1" to-layer="672" to-port="0"/>
		<edge from-layer="668" from-port="1" to-layer="672" to-port="1"/>
		<edge from-layer="669" from-port="1" to-layer="672" to-port="2"/>
		<edge from-layer="670" from-port="1" to-layer="672" to-port="3"/>
		<edge from-layer="671" from-port="1" to-layer="672" to-port="4"/>
		<edge from-layer="651" from-port="5" to-layer="673" to-port="0"/>
		<edge from-layer="672" from-port="5" to-layer="673" to-port="1"/>
		<edge from-layer="673" from-port="2" to-layer="675" to-port="0"/>
		<edge from-layer="674" from-port="1" to-layer="675" to-port="1"/>
		<edge from-layer="675" from-port="2" to-layer="677" to-port="0"/>
		<edge from-layer="676" from-port="1" to-layer="677" to-port="1"/>
		<edge from-layer="677" from-port="2" to-layer="679" to-port="0"/>
		<edge from-layer="678" from-port="1" to-layer="679" to-port="1"/>
		<edge from-layer="680" from-port="1" to-layer="681" to-port="0"/>
		<edge from-layer="681" from-port="1" to-layer="686" to-port="0"/>
		<edge from-layer="682" from-port="1" to-layer="686" to-port="1"/>
		<edge from-layer="683" from-port="1" to-layer="686" to-port="2"/>
		<edge from-layer="684" from-port="1" to-layer="686" to-port="3"/>
		<edge from-layer="685" from-port="1" to-layer="686" to-port="4"/>
		<edge from-layer="651" from-port="5" to-layer="687" to-port="0"/>
		<edge from-layer="686" from-port="5" to-layer="687" to-port="1"/>
		<edge from-layer="687" from-port="2" to-layer="689" to-port="0"/>
		<edge from-layer="688" from-port="1" to-layer="689" to-port="1"/>
		<edge from-layer="689" from-port="2" to-layer="690" to-port="0"/>
		<edge from-layer="690" from-port="1" to-layer="695" to-port="0"/>
		<edge from-layer="691" from-port="1" to-layer="695" to-port="1"/>
		<edge from-layer="692" from-port="1" to-layer="695" to-port="2"/>
		<edge from-layer="693" from-port="1" to-layer="695" to-port="3"/>
		<edge from-layer="694" from-port="1" to-layer="695" to-port="4"/>
		<edge from-layer="696" from-port="1" to-layer="697" to-port="0"/>
		<edge from-layer="697" from-port="1" to-layer="702" to-port="0"/>
		<edge from-layer="698" from-port="1" to-layer="702" to-port="1"/>
		<edge from-layer="699" from-port="1" to-layer="702" to-port="2"/>
		<edge from-layer="700" from-port="1" to-layer="702" to-port="3"/>
		<edge from-layer="701" from-port="1" to-layer="702" to-port="4"/>
		<edge from-layer="702" from-port="5" to-layer="704" to-port="0"/>
		<edge from-layer="703" from-port="1" to-layer="704" to-port="1"/>
		<edge from-layer="695" from-port="5" to-layer="705" to-port="0"/>
		<edge from-layer="704" from-port="2" to-layer="705" to-port="1"/>
		<edge from-layer="705" from-port="2" to-layer="707" to-port="0"/>
		<edge from-layer="706" from-port="1" to-layer="707" to-port="1"/>
		<edge from-layer="707" from-port="2" to-layer="708" to-port="0"/>
		<edge from-layer="708" from-port="1" to-layer="713" to-port="0"/>
		<edge from-layer="709" from-port="1" to-layer="713" to-port="1"/>
		<edge from-layer="710" from-port="1" to-layer="713" to-port="2"/>
		<edge from-layer="711" from-port="1" to-layer="713" to-port="3"/>
		<edge from-layer="712" from-port="1" to-layer="713" to-port="4"/>
		<edge from-layer="714" from-port="1" to-layer="715" to-port="0"/>
		<edge from-layer="715" from-port="1" to-layer="720" to-port="0"/>
		<edge from-layer="716" from-port="1" to-layer="720" to-port="1"/>
		<edge from-layer="717" from-port="1" to-layer="720" to-port="2"/>
		<edge from-layer="718" from-port="1" to-layer="720" to-port="3"/>
		<edge from-layer="719" from-port="1" to-layer="720" to-port="4"/>
		<edge from-layer="713" from-port="5" to-layer="721" to-port="0"/>
		<edge from-layer="720" from-port="5" to-layer="721" to-port="1"/>
		<edge from-layer="721" from-port="2" to-layer="723" to-port="0"/>
		<edge from-layer="722" from-port="1" to-layer="723" to-port="1"/>
		<edge from-layer="723" from-port="2" to-layer="724" to-port="0"/>
		<edge from-layer="724" from-port="1" to-layer="729" to-port="0"/>
		<edge from-layer="725" from-port="1" to-layer="729" to-port="1"/>
		<edge from-layer="726" from-port="1" to-layer="729" to-port="2"/>
		<edge from-layer="727" from-port="1" to-layer="729" to-port="3"/>
		<edge from-layer="728" from-port="1" to-layer="729" to-port="4"/>
		<edge from-layer="730" from-port="1" to-layer="731" to-port="0"/>
		<edge from-layer="731" from-port="1" to-layer="736" to-port="0"/>
		<edge from-layer="732" from-port="1" to-layer="736" to-port="1"/>
		<edge from-layer="733" from-port="1" to-layer="736" to-port="2"/>
		<edge from-layer="734" from-port="1" to-layer="736" to-port="3"/>
		<edge from-layer="735" from-port="1" to-layer="736" to-port="4"/>
		<edge from-layer="729" from-port="5" to-layer="737" to-port="0"/>
		<edge from-layer="736" from-port="5" to-layer="737" to-port="1"/>
		<edge from-layer="737" from-port="2" to-layer="739" to-port="0"/>
		<edge from-layer="738" from-port="1" to-layer="739" to-port="1"/>
		<edge from-layer="739" from-port="2" to-layer="741" to-port="0"/>
		<edge from-layer="740" from-port="1" to-layer="741" to-port="1"/>
		<edge from-layer="741" from-port="2" to-layer="743" to-port="0"/>
		<edge from-layer="742" from-port="1" to-layer="743" to-port="1"/>
		<edge from-layer="744" from-port="1" to-layer="745" to-port="0"/>
		<edge from-layer="745" from-port="1" to-layer="750" to-port="0"/>
		<edge from-layer="746" from-port="1" to-layer="750" to-port="1"/>
		<edge from-layer="747" from-port="1" to-layer="750" to-port="2"/>
		<edge from-layer="748" from-port="1" to-layer="750" to-port="3"/>
		<edge from-layer="749" from-port="1" to-layer="750" to-port="4"/>
		<edge from-layer="729" from-port="5" to-layer="751" to-port="0"/>
		<edge from-layer="750" from-port="5" to-layer="751" to-port="1"/>
		<edge from-layer="751" from-port="2" to-layer="753" to-port="0"/>
		<edge from-layer="752" from-port="1" to-layer="753" to-port="1"/>
		<edge from-layer="753" from-port="2" to-layer="754" to-port="0"/>
		<edge from-layer="754" from-port="1" to-layer="759" to-port="0"/>
		<edge from-layer="755" from-port="1" to-layer="759" to-port="1"/>
		<edge from-layer="756" from-port="1" to-layer="759" to-port="2"/>
		<edge from-layer="757" from-port="1" to-layer="759" to-port="3"/>
		<edge from-layer="758" from-port="1" to-layer="759" to-port="4"/>
		<edge from-layer="760" from-port="1" to-layer="761" to-port="0"/>
		<edge from-layer="761" from-port="1" to-layer="766" to-port="0"/>
		<edge from-layer="762" from-port="1" to-layer="766" to-port="1"/>
		<edge from-layer="763" from-port="1" to-layer="766" to-port="2"/>
		<edge from-layer="764" from-port="1" to-layer="766" to-port="3"/>
		<edge from-layer="765" from-port="1" to-layer="766" to-port="4"/>
		<edge from-layer="766" from-port="5" to-layer="768" to-port="0"/>
		<edge from-layer="767" from-port="1" to-layer="768" to-port="1"/>
		<edge from-layer="759" from-port="5" to-layer="769" to-port="0"/>
		<edge from-layer="768" from-port="2" to-layer="769" to-port="1"/>
		<edge from-layer="769" from-port="2" to-layer="771" to-port="0"/>
		<edge from-layer="770" from-port="1" to-layer="771" to-port="1"/>
		<edge from-layer="771" from-port="2" to-layer="772" to-port="0"/>
		<edge from-layer="772" from-port="1" to-layer="777" to-port="0"/>
		<edge from-layer="773" from-port="1" to-layer="777" to-port="1"/>
		<edge from-layer="774" from-port="1" to-layer="777" to-port="2"/>
		<edge from-layer="775" from-port="1" to-layer="777" to-port="3"/>
		<edge from-layer="776" from-port="1" to-layer="777" to-port="4"/>
		<edge from-layer="778" from-port="1" to-layer="779" to-port="0"/>
		<edge from-layer="779" from-port="1" to-layer="784" to-port="0"/>
		<edge from-layer="780" from-port="1" to-layer="784" to-port="1"/>
		<edge from-layer="781" from-port="1" to-layer="784" to-port="2"/>
		<edge from-layer="782" from-port="1" to-layer="784" to-port="3"/>
		<edge from-layer="783" from-port="1" to-layer="784" to-port="4"/>
		<edge from-layer="777" from-port="5" to-layer="785" to-port="0"/>
		<edge from-layer="784" from-port="5" to-layer="785" to-port="1"/>
		<edge from-layer="785" from-port="2" to-layer="787" to-port="0"/>
		<edge from-layer="786" from-port="1" to-layer="787" to-port="1"/>
		<edge from-layer="787" from-port="2" to-layer="788" to-port="0"/>
		<edge from-layer="788" from-port="1" to-layer="793" to-port="0"/>
		<edge from-layer="789" from-port="1" to-layer="793" to-port="1"/>
		<edge from-layer="790" from-port="1" to-layer="793" to-port="2"/>
		<edge from-layer="791" from-port="1" to-layer="793" to-port="3"/>
		<edge from-layer="792" from-port="1" to-layer="793" to-port="4"/>
		<edge from-layer="794" from-port="1" to-layer="795" to-port="0"/>
		<edge from-layer="795" from-port="1" to-layer="800" to-port="0"/>
		<edge from-layer="796" from-port="1" to-layer="800" to-port="1"/>
		<edge from-layer="797" from-port="1" to-layer="800" to-port="2"/>
		<edge from-layer="798" from-port="1" to-layer="800" to-port="3"/>
		<edge from-layer="799" from-port="1" to-layer="800" to-port="4"/>
		<edge from-layer="793" from-port="5" to-layer="801" to-port="0"/>
		<edge from-layer="800" from-port="5" to-layer="801" to-port="1"/>
		<edge from-layer="801" from-port="2" to-layer="803" to-port="0"/>
		<edge from-layer="802" from-port="1" to-layer="803" to-port="1"/>
		<edge from-layer="803" from-port="2" to-layer="805" to-port="0"/>
		<edge from-layer="804" from-port="1" to-layer="805" to-port="1"/>
		<edge from-layer="805" from-port="2" to-layer="807" to-port="0"/>
		<edge from-layer="806" from-port="1" to-layer="807" to-port="1"/>
		<edge from-layer="413" from-port="2" to-layer="808" to-port="0"/>
		<edge from-layer="427" from-port="2" to-layer="808" to-port="1"/>
		<edge from-layer="509" from-port="2" to-layer="808" to-port="2"/>
		<edge from-layer="523" from-port="2" to-layer="808" to-port="3"/>
		<edge from-layer="587" from-port="2" to-layer="808" to-port="4"/>
		<edge from-layer="601" from-port="2" to-layer="808" to-port="5"/>
		<edge from-layer="665" from-port="2" to-layer="808" to-port="6"/>
		<edge from-layer="679" from-port="2" to-layer="808" to-port="7"/>
		<edge from-layer="743" from-port="2" to-layer="808" to-port="8"/>
		<edge from-layer="807" from-port="2" to-layer="808" to-port="9"/>
		<edge from-layer="809" from-port="1" to-layer="810" to-port="0"/>
		<edge from-layer="810" from-port="1" to-layer="815" to-port="0"/>
		<edge from-layer="811" from-port="1" to-layer="815" to-port="1"/>
		<edge from-layer="812" from-port="1" to-layer="815" to-port="2"/>
		<edge from-layer="813" from-port="1" to-layer="815" to-port="3"/>
		<edge from-layer="814" from-port="1" to-layer="815" to-port="4"/>
		<edge from-layer="399" from-port="5" to-layer="816" to-port="0"/>
		<edge from-layer="815" from-port="5" to-layer="816" to-port="1"/>
		<edge from-layer="816" from-port="2" to-layer="818" to-port="0"/>
		<edge from-layer="817" from-port="1" to-layer="818" to-port="1"/>
		<edge from-layer="818" from-port="2" to-layer="820" to-port="0"/>
		<edge from-layer="819" from-port="1" to-layer="820" to-port="1"/>
		<edge from-layer="820" from-port="2" to-layer="822" to-port="0"/>
		<edge from-layer="821" from-port="1" to-layer="822" to-port="1"/>
		<edge from-layer="823" from-port="1" to-layer="824" to-port="0"/>
		<edge from-layer="824" from-port="1" to-layer="829" to-port="0"/>
		<edge from-layer="825" from-port="1" to-layer="829" to-port="1"/>
		<edge from-layer="826" from-port="1" to-layer="829" to-port="2"/>
		<edge from-layer="827" from-port="1" to-layer="829" to-port="3"/>
		<edge from-layer="828" from-port="1" to-layer="829" to-port="4"/>
		<edge from-layer="399" from-port="5" to-layer="830" to-port="0"/>
		<edge from-layer="829" from-port="5" to-layer="830" to-port="1"/>
		<edge from-layer="830" from-port="2" to-layer="832" to-port="0"/>
		<edge from-layer="831" from-port="1" to-layer="832" to-port="1"/>
		<edge from-layer="832" from-port="2" to-layer="834" to-port="0"/>
		<edge from-layer="833" from-port="1" to-layer="834" to-port="1"/>
		<edge from-layer="834" from-port="2" to-layer="836" to-port="0"/>
		<edge from-layer="835" from-port="1" to-layer="836" to-port="1"/>
		<edge from-layer="837" from-port="1" to-layer="838" to-port="0"/>
		<edge from-layer="838" from-port="1" to-layer="843" to-port="0"/>
		<edge from-layer="839" from-port="1" to-layer="843" to-port="1"/>
		<edge from-layer="840" from-port="1" to-layer="843" to-port="2"/>
		<edge from-layer="841" from-port="1" to-layer="843" to-port="3"/>
		<edge from-layer="842" from-port="1" to-layer="843" to-port="4"/>
		<edge from-layer="495" from-port="5" to-layer="844" to-port="0"/>
		<edge from-layer="843" from-port="5" to-layer="844" to-port="1"/>
		<edge from-layer="844" from-port="2" to-layer="846" to-port="0"/>
		<edge from-layer="845" from-port="1" to-layer="846" to-port="1"/>
		<edge from-layer="846" from-port="2" to-layer="848" to-port="0"/>
		<edge from-layer="847" from-port="1" to-layer="848" to-port="1"/>
		<edge from-layer="848" from-port="2" to-layer="850" to-port="0"/>
		<edge from-layer="849" from-port="1" to-layer="850" to-port="1"/>
		<edge from-layer="851" from-port="1" to-layer="852" to-port="0"/>
		<edge from-layer="852" from-port="1" to-layer="857" to-port="0"/>
		<edge from-layer="853" from-port="1" to-layer="857" to-port="1"/>
		<edge from-layer="854" from-port="1" to-layer="857" to-port="2"/>
		<edge from-layer="855" from-port="1" to-layer="857" to-port="3"/>
		<edge from-layer="856" from-port="1" to-layer="857" to-port="4"/>
		<edge from-layer="495" from-port="5" to-layer="858" to-port="0"/>
		<edge from-layer="857" from-port="5" to-layer="858" to-port="1"/>
		<edge from-layer="858" from-port="2" to-layer="860" to-port="0"/>
		<edge from-layer="859" from-port="1" to-layer="860" to-port="1"/>
		<edge from-layer="860" from-port="2" to-layer="862" to-port="0"/>
		<edge from-layer="861" from-port="1" to-layer="862" to-port="1"/>
		<edge from-layer="862" from-port="2" to-layer="864" to-port="0"/>
		<edge from-layer="863" from-port="1" to-layer="864" to-port="1"/>
		<edge from-layer="865" from-port="1" to-layer="866" to-port="0"/>
		<edge from-layer="866" from-port="1" to-layer="871" to-port="0"/>
		<edge from-layer="867" from-port="1" to-layer="871" to-port="1"/>
		<edge from-layer="868" from-port="1" to-layer="871" to-port="2"/>
		<edge from-layer="869" from-port="1" to-layer="871" to-port="3"/>
		<edge from-layer="870" from-port="1" to-layer="871" to-port="4"/>
		<edge from-layer="573" from-port="5" to-layer="872" to-port="0"/>
		<edge from-layer="871" from-port="5" to-layer="872" to-port="1"/>
		<edge from-layer="872" from-port="2" to-layer="874" to-port="0"/>
		<edge from-layer="873" from-port="1" to-layer="874" to-port="1"/>
		<edge from-layer="874" from-port="2" to-layer="876" to-port="0"/>
		<edge from-layer="875" from-port="1" to-layer="876" to-port="1"/>
		<edge from-layer="876" from-port="2" to-layer="878" to-port="0"/>
		<edge from-layer="877" from-port="1" to-layer="878" to-port="1"/>
		<edge from-layer="879" from-port="1" to-layer="880" to-port="0"/>
		<edge from-layer="880" from-port="1" to-layer="885" to-port="0"/>
		<edge from-layer="881" from-port="1" to-layer="885" to-port="1"/>
		<edge from-layer="882" from-port="1" to-layer="885" to-port="2"/>
		<edge from-layer="883" from-port="1" to-layer="885" to-port="3"/>
		<edge from-layer="884" from-port="1" to-layer="885" to-port="4"/>
		<edge from-layer="573" from-port="5" to-layer="886" to-port="0"/>
		<edge from-layer="885" from-port="5" to-layer="886" to-port="1"/>
		<edge from-layer="886" from-port="2" to-layer="888" to-port="0"/>
		<edge from-layer="887" from-port="1" to-layer="888" to-port="1"/>
		<edge from-layer="888" from-port="2" to-layer="890" to-port="0"/>
		<edge from-layer="889" from-port="1" to-layer="890" to-port="1"/>
		<edge from-layer="890" from-port="2" to-layer="892" to-port="0"/>
		<edge from-layer="891" from-port="1" to-layer="892" to-port="1"/>
		<edge from-layer="893" from-port="1" to-layer="894" to-port="0"/>
		<edge from-layer="894" from-port="1" to-layer="899" to-port="0"/>
		<edge from-layer="895" from-port="1" to-layer="899" to-port="1"/>
		<edge from-layer="896" from-port="1" to-layer="899" to-port="2"/>
		<edge from-layer="897" from-port="1" to-layer="899" to-port="3"/>
		<edge from-layer="898" from-port="1" to-layer="899" to-port="4"/>
		<edge from-layer="651" from-port="5" to-layer="900" to-port="0"/>
		<edge from-layer="899" from-port="5" to-layer="900" to-port="1"/>
		<edge from-layer="900" from-port="2" to-layer="902" to-port="0"/>
		<edge from-layer="901" from-port="1" to-layer="902" to-port="1"/>
		<edge from-layer="902" from-port="2" to-layer="904" to-port="0"/>
		<edge from-layer="903" from-port="1" to-layer="904" to-port="1"/>
		<edge from-layer="904" from-port="2" to-layer="906" to-port="0"/>
		<edge from-layer="905" from-port="1" to-layer="906" to-port="1"/>
		<edge from-layer="907" from-port="1" to-layer="908" to-port="0"/>
		<edge from-layer="908" from-port="1" to-layer="913" to-port="0"/>
		<edge from-layer="909" from-port="1" to-layer="913" to-port="1"/>
		<edge from-layer="910" from-port="1" to-layer="913" to-port="2"/>
		<edge from-layer="911" from-port="1" to-layer="913" to-port="3"/>
		<edge from-layer="912" from-port="1" to-layer="913" to-port="4"/>
		<edge from-layer="651" from-port="5" to-layer="914" to-port="0"/>
		<edge from-layer="913" from-port="5" to-layer="914" to-port="1"/>
		<edge from-layer="914" from-port="2" to-layer="916" to-port="0"/>
		<edge from-layer="915" from-port="1" to-layer="916" to-port="1"/>
		<edge from-layer="916" from-port="2" to-layer="918" to-port="0"/>
		<edge from-layer="917" from-port="1" to-layer="918" to-port="1"/>
		<edge from-layer="918" from-port="2" to-layer="920" to-port="0"/>
		<edge from-layer="919" from-port="1" to-layer="920" to-port="1"/>
		<edge from-layer="921" from-port="1" to-layer="922" to-port="0"/>
		<edge from-layer="922" from-port="1" to-layer="927" to-port="0"/>
		<edge from-layer="923" from-port="1" to-layer="927" to-port="1"/>
		<edge from-layer="924" from-port="1" to-layer="927" to-port="2"/>
		<edge from-layer="925" from-port="1" to-layer="927" to-port="3"/>
		<edge from-layer="926" from-port="1" to-layer="927" to-port="4"/>
		<edge from-layer="729" from-port="5" to-layer="928" to-port="0"/>
		<edge from-layer="927" from-port="5" to-layer="928" to-port="1"/>
		<edge from-layer="928" from-port="2" to-layer="930" to-port="0"/>
		<edge from-layer="929" from-port="1" to-layer="930" to-port="1"/>
		<edge from-layer="930" from-port="2" to-layer="932" to-port="0"/>
		<edge from-layer="931" from-port="1" to-layer="932" to-port="1"/>
		<edge from-layer="932" from-port="2" to-layer="934" to-port="0"/>
		<edge from-layer="933" from-port="1" to-layer="934" to-port="1"/>
		<edge from-layer="935" from-port="1" to-layer="936" to-port="0"/>
		<edge from-layer="936" from-port="1" to-layer="941" to-port="0"/>
		<edge from-layer="937" from-port="1" to-layer="941" to-port="1"/>
		<edge from-layer="938" from-port="1" to-layer="941" to-port="2"/>
		<edge from-layer="939" from-port="1" to-layer="941" to-port="3"/>
		<edge from-layer="940" from-port="1" to-layer="941" to-port="4"/>
		<edge from-layer="793" from-port="5" to-layer="942" to-port="0"/>
		<edge from-layer="941" from-port="5" to-layer="942" to-port="1"/>
		<edge from-layer="942" from-port="2" to-layer="944" to-port="0"/>
		<edge from-layer="943" from-port="1" to-layer="944" to-port="1"/>
		<edge from-layer="944" from-port="2" to-layer="946" to-port="0"/>
		<edge from-layer="945" from-port="1" to-layer="946" to-port="1"/>
		<edge from-layer="946" from-port="2" to-layer="948" to-port="0"/>
		<edge from-layer="947" from-port="1" to-layer="948" to-port="1"/>
		<edge from-layer="822" from-port="2" to-layer="949" to-port="0"/>
		<edge from-layer="836" from-port="2" to-layer="949" to-port="1"/>
		<edge from-layer="850" from-port="2" to-layer="949" to-port="2"/>
		<edge from-layer="864" from-port="2" to-layer="949" to-port="3"/>
		<edge from-layer="878" from-port="2" to-layer="949" to-port="4"/>
		<edge from-layer="892" from-port="2" to-layer="949" to-port="5"/>
		<edge from-layer="906" from-port="2" to-layer="949" to-port="6"/>
		<edge from-layer="920" from-port="2" to-layer="949" to-port="7"/>
		<edge from-layer="934" from-port="2" to-layer="949" to-port="8"/>
		<edge from-layer="948" from-port="2" to-layer="949" to-port="9"/>
		<edge from-layer="949" from-port="10" to-layer="951" to-port="0"/>
		<edge from-layer="950" from-port="1" to-layer="951" to-port="1"/>
		<edge from-layer="951" from-port="2" to-layer="952" to-port="0"/>
		<edge from-layer="952" from-port="1" to-layer="954" to-port="0"/>
		<edge from-layer="953" from-port="1" to-layer="954" to-port="1"/>
		<edge from-layer="394" from-port="1" to-layer="955" to-port="0"/>
		<edge from-layer="955" from-port="1" to-layer="959" to-port="0"/>
		<edge from-layer="956" from-port="1" to-layer="959" to-port="1"/>
		<edge from-layer="957" from-port="1" to-layer="959" to-port="2"/>
		<edge from-layer="958" from-port="1" to-layer="959" to-port="3"/>
		<edge from-layer="4" from-port="2" to-layer="960" to-port="0"/>
		<edge from-layer="960" from-port="1" to-layer="964" to-port="0"/>
		<edge from-layer="961" from-port="1" to-layer="964" to-port="1"/>
		<edge from-layer="962" from-port="1" to-layer="964" to-port="2"/>
		<edge from-layer="963" from-port="1" to-layer="964" to-port="3"/>
		<edge from-layer="959" from-port="4" to-layer="965" to-port="0"/>
		<edge from-layer="964" from-port="4" to-layer="965" to-port="1"/>
		<edge from-layer="965" from-port="2" to-layer="967" to-port="0"/>
		<edge from-layer="966" from-port="1" to-layer="967" to-port="1"/>
		<edge from-layer="394" from-port="1" to-layer="968" to-port="0"/>
		<edge from-layer="968" from-port="1" to-layer="972" to-port="0"/>
		<edge from-layer="969" from-port="1" to-layer="972" to-port="1"/>
		<edge from-layer="970" from-port="1" to-layer="972" to-port="2"/>
		<edge from-layer="971" from-port="1" to-layer="972" to-port="3"/>
		<edge from-layer="4" from-port="2" to-layer="973" to-port="0"/>
		<edge from-layer="973" from-port="1" to-layer="977" to-port="0"/>
		<edge from-layer="974" from-port="1" to-layer="977" to-port="1"/>
		<edge from-layer="975" from-port="1" to-layer="977" to-port="2"/>
		<edge from-layer="976" from-port="1" to-layer="977" to-port="3"/>
		<edge from-layer="972" from-port="4" to-layer="978" to-port="0"/>
		<edge from-layer="977" from-port="4" to-layer="978" to-port="1"/>
		<edge from-layer="978" from-port="2" to-layer="980" to-port="0"/>
		<edge from-layer="979" from-port="1" to-layer="980" to-port="1"/>
		<edge from-layer="490" from-port="1" to-layer="981" to-port="0"/>
		<edge from-layer="981" from-port="1" to-layer="985" to-port="0"/>
		<edge from-layer="982" from-port="1" to-layer="985" to-port="1"/>
		<edge from-layer="983" from-port="1" to-layer="985" to-port="2"/>
		<edge from-layer="984" from-port="1" to-layer="985" to-port="3"/>
		<edge from-layer="4" from-port="2" to-layer="986" to-port="0"/>
		<edge from-layer="986" from-port="1" to-layer="990" to-port="0"/>
		<edge from-layer="987" from-port="1" to-layer="990" to-port="1"/>
		<edge from-layer="988" from-port="1" to-layer="990" to-port="2"/>
		<edge from-layer="989" from-port="1" to-layer="990" to-port="3"/>
		<edge from-layer="985" from-port="4" to-layer="991" to-port="0"/>
		<edge from-layer="990" from-port="4" to-layer="991" to-port="1"/>
		<edge from-layer="991" from-port="2" to-layer="993" to-port="0"/>
		<edge from-layer="992" from-port="1" to-layer="993" to-port="1"/>
		<edge from-layer="490" from-port="1" to-layer="994" to-port="0"/>
		<edge from-layer="994" from-port="1" to-layer="998" to-port="0"/>
		<edge from-layer="995" from-port="1" to-layer="998" to-port="1"/>
		<edge from-layer="996" from-port="1" to-layer="998" to-port="2"/>
		<edge from-layer="997" from-port="1" to-layer="998" to-port="3"/>
		<edge from-layer="4" from-port="2" to-layer="999" to-port="0"/>
		<edge from-layer="999" from-port="1" to-layer="1003" to-port="0"/>
		<edge from-layer="1000" from-port="1" to-layer="1003" to-port="1"/>
		<edge from-layer="1001" from-port="1" to-layer="1003" to-port="2"/>
		<edge from-layer="1002" from-port="1" to-layer="1003" to-port="3"/>
		<edge from-layer="998" from-port="4" to-layer="1004" to-port="0"/>
		<edge from-layer="1003" from-port="4" to-layer="1004" to-port="1"/>
		<edge from-layer="1004" from-port="2" to-layer="1006" to-port="0"/>
		<edge from-layer="1005" from-port="1" to-layer="1006" to-port="1"/>
		<edge from-layer="568" from-port="1" to-layer="1007" to-port="0"/>
		<edge from-layer="1007" from-port="1" to-layer="1011" to-port="0"/>
		<edge from-layer="1008" from-port="1" to-layer="1011" to-port="1"/>
		<edge from-layer="1009" from-port="1" to-layer="1011" to-port="2"/>
		<edge from-layer="1010" from-port="1" to-layer="1011" to-port="3"/>
		<edge from-layer="4" from-port="2" to-layer="1012" to-port="0"/>
		<edge from-layer="1012" from-port="1" to-layer="1016" to-port="0"/>
		<edge from-layer="1013" from-port="1" to-layer="1016" to-port="1"/>
		<edge from-layer="1014" from-port="1" to-layer="1016" to-port="2"/>
		<edge from-layer="1015" from-port="1" to-layer="1016" to-port="3"/>
		<edge from-layer="1011" from-port="4" to-layer="1017" to-port="0"/>
		<edge from-layer="1016" from-port="4" to-layer="1017" to-port="1"/>
		<edge from-layer="1017" from-port="2" to-layer="1019" to-port="0"/>
		<edge from-layer="1018" from-port="1" to-layer="1019" to-port="1"/>
		<edge from-layer="568" from-port="1" to-layer="1020" to-port="0"/>
		<edge from-layer="1020" from-port="1" to-layer="1024" to-port="0"/>
		<edge from-layer="1021" from-port="1" to-layer="1024" to-port="1"/>
		<edge from-layer="1022" from-port="1" to-layer="1024" to-port="2"/>
		<edge from-layer="1023" from-port="1" to-layer="1024" to-port="3"/>
		<edge from-layer="4" from-port="2" to-layer="1025" to-port="0"/>
		<edge from-layer="1025" from-port="1" to-layer="1029" to-port="0"/>
		<edge from-layer="1026" from-port="1" to-layer="1029" to-port="1"/>
		<edge from-layer="1027" from-port="1" to-layer="1029" to-port="2"/>
		<edge from-layer="1028" from-port="1" to-layer="1029" to-port="3"/>
		<edge from-layer="1024" from-port="4" to-layer="1030" to-port="0"/>
		<edge from-layer="1029" from-port="4" to-layer="1030" to-port="1"/>
		<edge from-layer="1030" from-port="2" to-layer="1032" to-port="0"/>
		<edge from-layer="1031" from-port="1" to-layer="1032" to-port="1"/>
		<edge from-layer="646" from-port="1" to-layer="1033" to-port="0"/>
		<edge from-layer="1033" from-port="1" to-layer="1037" to-port="0"/>
		<edge from-layer="1034" from-port="1" to-layer="1037" to-port="1"/>
		<edge from-layer="1035" from-port="1" to-layer="1037" to-port="2"/>
		<edge from-layer="1036" from-port="1" to-layer="1037" to-port="3"/>
		<edge from-layer="4" from-port="2" to-layer="1038" to-port="0"/>
		<edge from-layer="1038" from-port="1" to-layer="1042" to-port="0"/>
		<edge from-layer="1039" from-port="1" to-layer="1042" to-port="1"/>
		<edge from-layer="1040" from-port="1" to-layer="1042" to-port="2"/>
		<edge from-layer="1041" from-port="1" to-layer="1042" to-port="3"/>
		<edge from-layer="1037" from-port="4" to-layer="1043" to-port="0"/>
		<edge from-layer="1042" from-port="4" to-layer="1043" to-port="1"/>
		<edge from-layer="1043" from-port="2" to-layer="1045" to-port="0"/>
		<edge from-layer="1044" from-port="1" to-layer="1045" to-port="1"/>
		<edge from-layer="646" from-port="1" to-layer="1046" to-port="0"/>
		<edge from-layer="1046" from-port="1" to-layer="1050" to-port="0"/>
		<edge from-layer="1047" from-port="1" to-layer="1050" to-port="1"/>
		<edge from-layer="1048" from-port="1" to-layer="1050" to-port="2"/>
		<edge from-layer="1049" from-port="1" to-layer="1050" to-port="3"/>
		<edge from-layer="4" from-port="2" to-layer="1051" to-port="0"/>
		<edge from-layer="1051" from-port="1" to-layer="1055" to-port="0"/>
		<edge from-layer="1052" from-port="1" to-layer="1055" to-port="1"/>
		<edge from-layer="1053" from-port="1" to-layer="1055" to-port="2"/>
		<edge from-layer="1054" from-port="1" to-layer="1055" to-port="3"/>
		<edge from-layer="1050" from-port="4" to-layer="1056" to-port="0"/>
		<edge from-layer="1055" from-port="4" to-layer="1056" to-port="1"/>
		<edge from-layer="1056" from-port="2" to-layer="1058" to-port="0"/>
		<edge from-layer="1057" from-port="1" to-layer="1058" to-port="1"/>
		<edge from-layer="724" from-port="1" to-layer="1059" to-port="0"/>
		<edge from-layer="1059" from-port="1" to-layer="1063" to-port="0"/>
		<edge from-layer="1060" from-port="1" to-layer="1063" to-port="1"/>
		<edge from-layer="1061" from-port="1" to-layer="1063" to-port="2"/>
		<edge from-layer="1062" from-port="1" to-layer="1063" to-port="3"/>
		<edge from-layer="4" from-port="2" to-layer="1064" to-port="0"/>
		<edge from-layer="1064" from-port="1" to-layer="1068" to-port="0"/>
		<edge from-layer="1065" from-port="1" to-layer="1068" to-port="1"/>
		<edge from-layer="1066" from-port="1" to-layer="1068" to-port="2"/>
		<edge from-layer="1067" from-port="1" to-layer="1068" to-port="3"/>
		<edge from-layer="1063" from-port="4" to-layer="1069" to-port="0"/>
		<edge from-layer="1068" from-port="4" to-layer="1069" to-port="1"/>
		<edge from-layer="1069" from-port="2" to-layer="1071" to-port="0"/>
		<edge from-layer="1070" from-port="1" to-layer="1071" to-port="1"/>
		<edge from-layer="788" from-port="1" to-layer="1072" to-port="0"/>
		<edge from-layer="1072" from-port="1" to-layer="1076" to-port="0"/>
		<edge from-layer="1073" from-port="1" to-layer="1076" to-port="1"/>
		<edge from-layer="1074" from-port="1" to-layer="1076" to-port="2"/>
		<edge from-layer="1075" from-port="1" to-layer="1076" to-port="3"/>
		<edge from-layer="4" from-port="2" to-layer="1077" to-port="0"/>
		<edge from-layer="1077" from-port="1" to-layer="1081" to-port="0"/>
		<edge from-layer="1078" from-port="1" to-layer="1081" to-port="1"/>
		<edge from-layer="1079" from-port="1" to-layer="1081" to-port="2"/>
		<edge from-layer="1080" from-port="1" to-layer="1081" to-port="3"/>
		<edge from-layer="1076" from-port="4" to-layer="1082" to-port="0"/>
		<edge from-layer="1081" from-port="4" to-layer="1082" to-port="1"/>
		<edge from-layer="1082" from-port="2" to-layer="1084" to-port="0"/>
		<edge from-layer="1083" from-port="1" to-layer="1084" to-port="1"/>
		<edge from-layer="967" from-port="2" to-layer="1085" to-port="0"/>
		<edge from-layer="980" from-port="2" to-layer="1085" to-port="1"/>
		<edge from-layer="993" from-port="2" to-layer="1085" to-port="2"/>
		<edge from-layer="1006" from-port="2" to-layer="1085" to-port="3"/>
		<edge from-layer="1019" from-port="2" to-layer="1085" to-port="4"/>
		<edge from-layer="1032" from-port="2" to-layer="1085" to-port="5"/>
		<edge from-layer="1045" from-port="2" to-layer="1085" to-port="6"/>
		<edge from-layer="1058" from-port="2" to-layer="1085" to-port="7"/>
		<edge from-layer="1071" from-port="2" to-layer="1085" to-port="8"/>
		<edge from-layer="1084" from-port="2" to-layer="1085" to-port="9"/>
		<edge from-layer="808" from-port="10" to-layer="1086" to-port="0"/>
		<edge from-layer="954" from-port="2" to-layer="1086" to-port="1"/>
		<edge from-layer="1085" from-port="10" to-layer="1086" to-port="2"/>
		<edge from-layer="1086" from-port="3" to-layer="1087" to-port="0"/>
	</edges>
	<meta_data>
		<MO_version value="unknown version"/>
		<cli_parameters>
			<caffe_parser_path value="DIR"/>
			<data_type value="FP16"/>
			<disable_nhwc_to_nchw value="False"/>
			<disable_omitting_optional value="False"/>
			<disable_resnet_optimization value="False"/>
			<disable_weights_compression value="False"/>
			<enable_concat_optimization value="False"/>
			<enable_flattening_nested_params value="False"/>
			<enable_ssd_gluoncv value="False"/>
			<extensions value="DIR"/>
			<framework value="caffe"/>
			<freeze_placeholder_with_value value="{}"/>
			<generate_deprecated_IR_V7 value="False"/>
			<input value="data"/>
			<input_model value="DIR/pedestrian-and-vehicle-detector-adas-0001.caffemodel"/>
			<input_model_is_text value="False"/>
			<input_proto value="DIR/pedestrian-and-vehicle-detector-adas-0001.prototxt"/>
			<input_shape value="[1,3,384,672]"/>
			<k value="DIR/CustomLayersMapping.xml"/>
			<keep_shape_ops value="True"/>
			<legacy_mxnet_model value="False"/>
			<log_level value="ERROR"/>
			<mean_scale_values value="{'data': {'mean': array([104., 117., 123.]), 'scale': array([58.8235])}}"/>
			<mean_values value="data[104.0,117.0,123.0]"/>
			<model_name value="pedestrian-and-vehicle-detector-adas-0001"/>
			<output value="['detection_out']"/>
			<output_dir value="DIR"/>
			<placeholder_data_types value="{}"/>
			<placeholder_shapes value="{'data': array([  1,   3, 384, 672])}"/>
			<progress value="False"/>
			<remove_memory value="False"/>
			<remove_output_softmax value="False"/>
			<reverse_input_channels value="False"/>
			<save_params_from_nd value="False"/>
			<scale_values value="data[58.8235]"/>
			<silent value="False"/>
			<static_shape value="False"/>
			<stream_output value="False"/>
			<unset unset_cli_parameters="batch, counts, disable_fusing, disable_gfusing, finegrain_fusing, input_checkpoint, input_meta_graph, input_symbol, mean_file, mean_file_offsets, move_to_preprocess, nd_prefix_name, pretrained_model_name, saved_model_dir, saved_model_tags, scale, tensorboard_logdir, tensorflow_custom_layer_libraries, tensorflow_custom_operations_config_update, tensorflow_object_detection_api_pipeline_config, tensorflow_use_custom_operations_config, transformations_config"/>
		</cli_parameters>
	</meta_data>
	<quantization_parameters>
		<config>{
		'compression': {
			'algorithms': [
				{
					'name': 'DefaultQuantization',
					'params': {
						'preset': 'performance',
						'stat_subset_size': 300
					}
				}
			],
			'dump_intermediate_model': true,
			'target_device': 'CPU'
		},
		'engine': {
			'models': [
				{
					'name': 'pedestrian-and-vehicle-detector-adas-0001',
					'launchers': [
						{
							'framework': 'dlsdk',
							'adapter': 'ssd',
							'device': 'CPU'
						}
					],
					'datasets': [
						{
							'name': 'pedestrian_and_vehicle_dataset',
							'data_source': 'PATH',
							'annotation': 'pd_label_start_2.pickle',
							'dataset_meta': 'pd_label_start_2.json',
							'annotation_conversion': {
								'converter': 'detection_opencv_storage',
								'annotation_file': 'PATH',
								'image_names_file': 'PATH',
								'label_start': 2,
								'background_label': 0
							},
							'preprocessing': [
								{
									'type': 'resize',
									'dst_width': 672,
									'dst_height': 384
								}
							],
							'postprocessing': [
								{
									'type': 'resize_prediction_boxes'
								},
								{
									'type': 'cast_to_int'
								},
								{
									'type': 'filter',
									'height_range': 120,
									'apply_to': 'annotation',
									'is_empty': true
								},
								{
									'type': 'filter',
									'height_range': 120,
									'apply_to': 'prediction',
									'is_empty': true
								}
							],
							'metrics': [
								{
									'type': 'map',
									'integral': '11point',
									'ignore_difficult': true,
									'include_boundaries': true,
									'allow_multiple_matches_per_ignored': true,
									'use_filtered_tp': true
								}
							]
						}
					]
				}
			],
			'stat_requests_number': null,
			'eval_requests_number': null,
			'type': 'accuracy_checker'
		}
	}</config>
		<version value="1.0"/>
		<cli_params value="{'evaluate': False, 'output_dir': 'PATH', 'direct_dump': True, 'log_level': 'INFO', 'pbar': False, 'stream_output': False, 'keep_uncompressed_weights': False}"/>
	</quantization_parameters>
</net>
